program(1.0)
[buildInfo = dict<tensor<string, []>, tensor<string, []>>({{"coremlc-component-MIL", "3520.4.1"}, {"coremlc-version", "3520.5.1"}, {"coremltools-component-torch", "2.10.0"}, {"coremltools-source-dialect", "TorchScript"}, {"coremltools-version", "9.0"}})]
{
    func main<ios15>(tensor<fp32, [1, 1, ?, ?]> gray) [FlexibleShapeInformation = tuple<tuple<tensor<string, []>, dict<tensor<string, []>, tensor<int32, [?]>>>, tuple<tensor<string, []>, dict<tensor<string, []>, list<tensor<int32, [2]>, ?>>>>((("DefaultShapes", {{"gray", [1, 1, 256, 256]}}), ("RangeDims", {{"gray", [[1, 1], [1, 1], [256, 2048], [256, 2048]]}})))] {
            tensor<int32, []> var_4 = const()[name = tensor<string, []>("op_4"), val = tensor<int32, []>(1)];
            tensor<int32, [4]> var_10_begin_0 = const()[name = tensor<string, []>("op_10_begin_0"), val = tensor<int32, [4]>([0, 0, 0, 0])];
            tensor<int32, [4]> var_10_end_0 = const()[name = tensor<string, []>("op_10_end_0"), val = tensor<int32, [4]>([1, 1, 0, 0])];
            tensor<bool, [4]> var_10_end_mask_0 = const()[name = tensor<string, []>("op_10_end_mask_0"), val = tensor<bool, [4]>([true, true, true, true])];
            tensor<string, []> gray_to_fp16_dtype_0 = const()[name = tensor<string, []>("gray_to_fp16_dtype_0"), val = tensor<string, []>("fp16")];
            tensor<fp16, [1, 1, ?, ?]> gray_to_fp16 = cast(dtype = gray_to_fp16_dtype_0, x = gray)[name = tensor<string, []>("cast_1")];
            tensor<fp16, [1, 1, ?, ?]> var_10_cast_fp16 = slice_by_index(begin = var_10_begin_0, end = var_10_end_0, end_mask = var_10_end_mask_0, x = gray_to_fp16)[name = tensor<string, []>("op_10_cast_fp16")];
            tensor<int32, [4]> var_13 = const()[name = tensor<string, []>("op_13"), val = tensor<int32, [4]>([1, 4, 1, 1])];
            tensor<fp16, [1, 4, ?, ?]> var_14_cast_fp16 = tile(reps = var_13, x = var_10_cast_fp16)[name = tensor<string, []>("op_14_cast_fp16")];
            tensor<fp16, []> var_15_to_fp16 = const()[name = tensor<string, []>("op_15_to_fp16"), val = tensor<fp16, []>(0x0p+0)];
            tensor<fp16, [1, 4, ?, ?]> hint_1_cast_fp16 = mul(x = var_14_cast_fp16, y = var_15_to_fp16)[name = tensor<string, []>("hint_1_cast_fp16")];
            tensor<bool, []> input_139_interleave_0 = const()[name = tensor<string, []>("input_139_interleave_0"), val = tensor<bool, []>(false)];
            tensor<fp16, [1, 5, ?, ?]> input_139_cast_fp16 = concat(axis = var_4, interleave = input_139_interleave_0, values = (gray_to_fp16, hint_1_cast_fp16))[name = tensor<string, []>("input_139_cast_fp16")];
            tensor<int32, []> var_21 = const()[name = tensor<string, []>("op_21"), val = tensor<int32, []>(1)];
            tensor<int32, []> var_25 = const()[name = tensor<string, []>("op_25"), val = tensor<int32, []>(2)];
            tensor<string, []> input0_6_pad_type_0 = const()[name = tensor<string, []>("input0_6_pad_type_0"), val = tensor<string, []>("custom")];
            tensor<int32, [4]> input0_6_pad_0 = const()[name = tensor<string, []>("input0_6_pad_0"), val = tensor<int32, [4]>([1, 1, 1, 1])];
            tensor<int32, [2]> input0_6_strides_0 = const()[name = tensor<string, []>("input0_6_strides_0"), val = tensor<int32, [2]>([1, 1])];
            tensor<int32, [2]> input0_6_dilations_0 = const()[name = tensor<string, []>("input0_6_dilations_0"), val = tensor<int32, [2]>([1, 1])];
            tensor<int32, []> input0_6_groups_0 = const()[name = tensor<string, []>("input0_6_groups_0"), val = tensor<int32, []>(1)];
            tensor<fp16, [32, 5, 3, 3]> model_generator_to0_0_weight_to_fp16 = const()[name = tensor<string, []>("model_generator_to0_0_weight_to_fp16"), val = tensor<fp16, [32, 5, 3, 3]>(BLOBFILE(path = tensor<string, []>("@model_path/weights/weight.bin"), offset = tensor<uint64, []>(64)))];
            tensor<fp16, [32]> model_generator_to0_0_bias_to_fp16 = const()[name = tensor<string, []>("model_generator_to0_0_bias_to_fp16"), val = tensor<fp16, [32]>(BLOBFILE(path = tensor<string, []>("@model_path/weights/weight.bin"), offset = tensor<uint64, []>(3008)))];
            tensor<fp16, [1, 32, ?, ?]> input0_6_cast_fp16 = conv(bias = model_generator_to0_0_bias_to_fp16, dilations = input0_6_dilations_0, groups = input0_6_groups_0, pad = input0_6_pad_0, pad_type = input0_6_pad_type_0, strides = input0_6_strides_0, weight = model_generator_to0_0_weight_to_fp16, x = input_139_cast_fp16)[name = tensor<string, []>("input0_6_cast_fp16")];
            tensor<fp16, []> var_22_to_fp16 = const()[name = tensor<string, []>("op_22_to_fp16"), val = tensor<fp16, []>(0x1.998p-3)];
            tensor<fp16, [1, 32, ?, ?]> input_141_cast_fp16 = leaky_relu(alpha = var_22_to_fp16, x = input0_6_cast_fp16)[name = tensor<string, []>("input_141_cast_fp16")];
            tensor<string, []> input_123_pad_type_0 = const()[name = tensor<string, []>("input_123_pad_type_0"), val = tensor<string, []>("custom")];
            tensor<int32, [4]> input_123_pad_0 = const()[name = tensor<string, []>("input_123_pad_0"), val = tensor<int32, [4]>([1, 1, 1, 1])];
            tensor<int32, [2]> input_123_strides_0 = const()[name = tensor<string, []>("input_123_strides_0"), val = tensor<int32, [2]>([1, 1])];
            tensor<int32, [2]> input_123_dilations_0 = const()[name = tensor<string, []>("input_123_dilations_0"), val = tensor<int32, [2]>([1, 1])];
            tensor<int32, []> input_123_groups_0 = const()[name = tensor<string, []>("input_123_groups_0"), val = tensor<int32, []>(1)];
            tensor<fp16, [32, 32, 3, 3]> model_generator_to0_2_weight_to_fp16 = const()[name = tensor<string, []>("model_generator_to0_2_weight_to_fp16"), val = tensor<fp16, [32, 32, 3, 3]>(BLOBFILE(path = tensor<string, []>("@model_path/weights/weight.bin"), offset = tensor<uint64, []>(3136)))];
            tensor<fp16, [32]> model_generator_to0_2_bias_to_fp16 = const()[name = tensor<string, []>("model_generator_to0_2_bias_to_fp16"), val = tensor<fp16, [32]>(BLOBFILE(path = tensor<string, []>("@model_path/weights/weight.bin"), offset = tensor<uint64, []>(21632)))];
            tensor<fp16, [1, 32, ?, ?]> input_123_cast_fp16 = conv(bias = model_generator_to0_2_bias_to_fp16, dilations = input_123_dilations_0, groups = input_123_groups_0, pad = input_123_pad_0, pad_type = input_123_pad_type_0, strides = input_123_strides_0, weight = model_generator_to0_2_weight_to_fp16, x = input_141_cast_fp16)[name = tensor<string, []>("input_123_cast_fp16")];
            tensor<fp16, [1, 32, ?, ?]> input_145_cast_fp16 = leaky_relu(alpha = var_22_to_fp16, x = input_123_cast_fp16)[name = tensor<string, []>("input_145_cast_fp16")];
            tensor<string, []> input_147_pad_type_0 = const()[name = tensor<string, []>("input_147_pad_type_0"), val = tensor<string, []>("custom")];
            tensor<int32, [4]> input_147_pad_0 = const()[name = tensor<string, []>("input_147_pad_0"), val = tensor<int32, [4]>([1, 1, 1, 1])];
            tensor<int32, [2]> input_147_strides_0 = const()[name = tensor<string, []>("input_147_strides_0"), val = tensor<int32, [2]>([2, 2])];
            tensor<int32, [2]> input_147_dilations_0 = const()[name = tensor<string, []>("input_147_dilations_0"), val = tensor<int32, [2]>([1, 1])];
            tensor<int32, []> input_147_groups_0 = const()[name = tensor<string, []>("input_147_groups_0"), val = tensor<int32, []>(1)];
            tensor<fp16, [64, 32, 3, 3]> model_generator_to1_0_weight_to_fp16 = const()[name = tensor<string, []>("model_generator_to1_0_weight_to_fp16"), val = tensor<fp16, [64, 32, 3, 3]>(BLOBFILE(path = tensor<string, []>("@model_path/weights/weight.bin"), offset = tensor<uint64, []>(21760)))];
            tensor<fp16, [64]> model_generator_to1_0_bias_to_fp16 = const()[name = tensor<string, []>("model_generator_to1_0_bias_to_fp16"), val = tensor<fp16, [64]>(BLOBFILE(path = tensor<string, []>("@model_path/weights/weight.bin"), offset = tensor<uint64, []>(58688)))];
            tensor<fp16, [1, 64, ?, ?]> input_147_cast_fp16 = conv(bias = model_generator_to1_0_bias_to_fp16, dilations = input_147_dilations_0, groups = input_147_groups_0, pad = input_147_pad_0, pad_type = input_147_pad_type_0, strides = input_147_strides_0, weight = model_generator_to1_0_weight_to_fp16, x = input_145_cast_fp16)[name = tensor<string, []>("input_147_cast_fp16")];
            tensor<fp16, [1, 64, ?, ?]> input_149_cast_fp16 = leaky_relu(alpha = var_22_to_fp16, x = input_147_cast_fp16)[name = tensor<string, []>("input_149_cast_fp16")];
            tensor<string, []> input_125_pad_type_0 = const()[name = tensor<string, []>("input_125_pad_type_0"), val = tensor<string, []>("custom")];
            tensor<int32, [4]> input_125_pad_0 = const()[name = tensor<string, []>("input_125_pad_0"), val = tensor<int32, [4]>([1, 1, 1, 1])];
            tensor<int32, [2]> input_125_strides_0 = const()[name = tensor<string, []>("input_125_strides_0"), val = tensor<int32, [2]>([1, 1])];
            tensor<int32, [2]> input_125_dilations_0 = const()[name = tensor<string, []>("input_125_dilations_0"), val = tensor<int32, [2]>([1, 1])];
            tensor<int32, []> input_125_groups_0 = const()[name = tensor<string, []>("input_125_groups_0"), val = tensor<int32, []>(1)];
            tensor<fp16, [64, 64, 3, 3]> model_generator_to1_2_weight_to_fp16 = const()[name = tensor<string, []>("model_generator_to1_2_weight_to_fp16"), val = tensor<fp16, [64, 64, 3, 3]>(BLOBFILE(path = tensor<string, []>("@model_path/weights/weight.bin"), offset = tensor<uint64, []>(58880)))];
            tensor<fp16, [64]> model_generator_to1_2_bias_to_fp16 = const()[name = tensor<string, []>("model_generator_to1_2_bias_to_fp16"), val = tensor<fp16, [64]>(BLOBFILE(path = tensor<string, []>("@model_path/weights/weight.bin"), offset = tensor<uint64, []>(132672)))];
            tensor<fp16, [1, 64, ?, ?]> input_125_cast_fp16 = conv(bias = model_generator_to1_2_bias_to_fp16, dilations = input_125_dilations_0, groups = input_125_groups_0, pad = input_125_pad_0, pad_type = input_125_pad_type_0, strides = input_125_strides_0, weight = model_generator_to1_2_weight_to_fp16, x = input_149_cast_fp16)[name = tensor<string, []>("input_125_cast_fp16")];
            tensor<fp16, [1, 64, ?, ?]> input_127_cast_fp16 = leaky_relu(alpha = var_22_to_fp16, x = input_125_cast_fp16)[name = tensor<string, []>("input_127_cast_fp16")];
            tensor<string, []> input_117_pad_type_0 = const()[name = tensor<string, []>("input_117_pad_type_0"), val = tensor<string, []>("custom")];
            tensor<int32, [4]> input_117_pad_0 = const()[name = tensor<string, []>("input_117_pad_0"), val = tensor<int32, [4]>([1, 1, 1, 1])];
            tensor<int32, [2]> input_117_strides_0 = const()[name = tensor<string, []>("input_117_strides_0"), val = tensor<int32, [2]>([2, 2])];
            tensor<int32, [2]> input_117_dilations_0 = const()[name = tensor<string, []>("input_117_dilations_0"), val = tensor<int32, [2]>([1, 1])];
            tensor<int32, []> input_117_groups_0 = const()[name = tensor<string, []>("input_117_groups_0"), val = tensor<int32, []>(1)];
            tensor<fp16, [92, 64, 3, 3]> model_generator_to2_0_weight_to_fp16 = const()[name = tensor<string, []>("model_generator_to2_0_weight_to_fp16"), val = tensor<fp16, [92, 64, 3, 3]>(BLOBFILE(path = tensor<string, []>("@model_path/weights/weight.bin"), offset = tensor<uint64, []>(132864)))];
            tensor<fp16, [92]> model_generator_to2_0_bias_to_fp16 = const()[name = tensor<string, []>("model_generator_to2_0_bias_to_fp16"), val = tensor<fp16, [92]>(BLOBFILE(path = tensor<string, []>("@model_path/weights/weight.bin"), offset = tensor<uint64, []>(238912)))];
            tensor<fp16, [1, 92, ?, ?]> input_117_cast_fp16 = conv(bias = model_generator_to2_0_bias_to_fp16, dilations = input_117_dilations_0, groups = input_117_groups_0, pad = input_117_pad_0, pad_type = input_117_pad_type_0, strides = input_117_strides_0, weight = model_generator_to2_0_weight_to_fp16, x = input_127_cast_fp16)[name = tensor<string, []>("input_117_cast_fp16")];
            tensor<fp16, [1, 92, ?, ?]> input_119_cast_fp16 = leaky_relu(alpha = var_22_to_fp16, x = input_117_cast_fp16)[name = tensor<string, []>("input_119_cast_fp16")];
            tensor<string, []> input_129_pad_type_0 = const()[name = tensor<string, []>("input_129_pad_type_0"), val = tensor<string, []>("custom")];
            tensor<int32, [4]> input_129_pad_0 = const()[name = tensor<string, []>("input_129_pad_0"), val = tensor<int32, [4]>([1, 1, 1, 1])];
            tensor<int32, [2]> input_129_strides_0 = const()[name = tensor<string, []>("input_129_strides_0"), val = tensor<int32, [2]>([1, 1])];
            tensor<int32, [2]> input_129_dilations_0 = const()[name = tensor<string, []>("input_129_dilations_0"), val = tensor<int32, [2]>([1, 1])];
            tensor<int32, []> input_129_groups_0 = const()[name = tensor<string, []>("input_129_groups_0"), val = tensor<int32, []>(1)];
            tensor<fp16, [92, 92, 3, 3]> model_generator_to2_2_weight_to_fp16 = const()[name = tensor<string, []>("model_generator_to2_2_weight_to_fp16"), val = tensor<fp16, [92, 92, 3, 3]>(BLOBFILE(path = tensor<string, []>("@model_path/weights/weight.bin"), offset = tensor<uint64, []>(239168)))];
            tensor<fp16, [92]> model_generator_to2_2_bias_to_fp16 = const()[name = tensor<string, []>("model_generator_to2_2_bias_to_fp16"), val = tensor<fp16, [92]>(BLOBFILE(path = tensor<string, []>("@model_path/weights/weight.bin"), offset = tensor<uint64, []>(391616)))];
            tensor<fp16, [1, 92, ?, ?]> input_129_cast_fp16 = conv(bias = model_generator_to2_2_bias_to_fp16, dilations = input_129_dilations_0, groups = input_129_groups_0, pad = input_129_pad_0, pad_type = input_129_pad_type_0, strides = input_129_strides_0, weight = model_generator_to2_2_weight_to_fp16, x = input_119_cast_fp16)[name = tensor<string, []>("input_129_cast_fp16")];
            tensor<fp16, [1, 92, ?, ?]> input_121_cast_fp16 = leaky_relu(alpha = var_22_to_fp16, x = input_129_cast_fp16)[name = tensor<string, []>("input_121_cast_fp16")];
            tensor<string, []> input_131_pad_type_0 = const()[name = tensor<string, []>("input_131_pad_type_0"), val = tensor<string, []>("custom")];
            tensor<int32, [4]> input_131_pad_0 = const()[name = tensor<string, []>("input_131_pad_0"), val = tensor<int32, [4]>([1, 1, 1, 1])];
            tensor<int32, [2]> input_131_strides_0 = const()[name = tensor<string, []>("input_131_strides_0"), val = tensor<int32, [2]>([2, 2])];
            tensor<int32, [2]> input_131_dilations_0 = const()[name = tensor<string, []>("input_131_dilations_0"), val = tensor<int32, [2]>([1, 1])];
            tensor<int32, []> input_131_groups_0 = const()[name = tensor<string, []>("input_131_groups_0"), val = tensor<int32, []>(1)];
            tensor<fp16, [128, 92, 3, 3]> model_generator_to3_0_weight_to_fp16 = const()[name = tensor<string, []>("model_generator_to3_0_weight_to_fp16"), val = tensor<fp16, [128, 92, 3, 3]>(BLOBFILE(path = tensor<string, []>("@model_path/weights/weight.bin"), offset = tensor<uint64, []>(391872)))];
            tensor<fp16, [128]> model_generator_to3_0_bias_to_fp16 = const()[name = tensor<string, []>("model_generator_to3_0_bias_to_fp16"), val = tensor<fp16, [128]>(BLOBFILE(path = tensor<string, []>("@model_path/weights/weight.bin"), offset = tensor<uint64, []>(603904)))];
            tensor<fp16, [1, 128, ?, ?]> input_131_cast_fp16 = conv(bias = model_generator_to3_0_bias_to_fp16, dilations = input_131_dilations_0, groups = input_131_groups_0, pad = input_131_pad_0, pad_type = input_131_pad_type_0, strides = input_131_strides_0, weight = model_generator_to3_0_weight_to_fp16, x = input_121_cast_fp16)[name = tensor<string, []>("input_131_cast_fp16")];
            tensor<fp16, [1, 128, ?, ?]> input_133_cast_fp16 = leaky_relu(alpha = var_22_to_fp16, x = input_131_cast_fp16)[name = tensor<string, []>("input_133_cast_fp16")];
            tensor<string, []> input_135_pad_type_0 = const()[name = tensor<string, []>("input_135_pad_type_0"), val = tensor<string, []>("custom")];
            tensor<int32, [4]> input_135_pad_0 = const()[name = tensor<string, []>("input_135_pad_0"), val = tensor<int32, [4]>([1, 1, 1, 1])];
            tensor<int32, [2]> input_135_strides_0 = const()[name = tensor<string, []>("input_135_strides_0"), val = tensor<int32, [2]>([1, 1])];
            tensor<int32, [2]> input_135_dilations_0 = const()[name = tensor<string, []>("input_135_dilations_0"), val = tensor<int32, [2]>([1, 1])];
            tensor<int32, []> input_135_groups_0 = const()[name = tensor<string, []>("input_135_groups_0"), val = tensor<int32, []>(1)];
            tensor<fp16, [128, 128, 3, 3]> model_generator_to3_2_weight_to_fp16 = const()[name = tensor<string, []>("model_generator_to3_2_weight_to_fp16"), val = tensor<fp16, [128, 128, 3, 3]>(BLOBFILE(path = tensor<string, []>("@model_path/weights/weight.bin"), offset = tensor<uint64, []>(604224)))];
            tensor<fp16, [128]> model_generator_to3_2_bias_to_fp16 = const()[name = tensor<string, []>("model_generator_to3_2_bias_to_fp16"), val = tensor<fp16, [128]>(BLOBFILE(path = tensor<string, []>("@model_path/weights/weight.bin"), offset = tensor<uint64, []>(899200)))];
            tensor<fp16, [1, 128, ?, ?]> input_135_cast_fp16 = conv(bias = model_generator_to3_2_bias_to_fp16, dilations = input_135_dilations_0, groups = input_135_groups_0, pad = input_135_pad_0, pad_type = input_135_pad_type_0, strides = input_135_strides_0, weight = model_generator_to3_2_weight_to_fp16, x = input_133_cast_fp16)[name = tensor<string, []>("input_135_cast_fp16")];
            tensor<fp16, [1, 128, ?, ?]> aux_out_1_cast_fp16 = leaky_relu(alpha = var_22_to_fp16, x = input_135_cast_fp16)[name = tensor<string, []>("aux_out_1_cast_fp16")];
            tensor<int32, [4]> input0_8_begin_0 = const()[name = tensor<string, []>("input0_8_begin_0"), val = tensor<int32, [4]>([0, 0, 0, 0])];
            tensor<int32, [4]> input0_8_end_0 = const()[name = tensor<string, []>("input0_8_end_0"), val = tensor<int32, [4]>([1, 1, 0, 0])];
            tensor<bool, [4]> input0_8_end_mask_0 = const()[name = tensor<string, []>("input0_8_end_mask_0"), val = tensor<bool, [4]>([true, false, true, true])];
            tensor<fp16, [1, 1, ?, ?]> input0_8_cast_fp16 = slice_by_index(begin = input0_8_begin_0, end = input0_8_end_0, end_mask = input0_8_end_mask_0, x = input_139_cast_fp16)[name = tensor<string, []>("input0_8_cast_fp16")];
            tensor<string, []> input0_10_pad_type_0 = const()[name = tensor<string, []>("input0_10_pad_type_0"), val = tensor<string, []>("custom")];
            tensor<int32, [4]> input0_10_pad_0 = const()[name = tensor<string, []>("input0_10_pad_0"), val = tensor<int32, [4]>([3, 3, 3, 3])];
            tensor<int32, [2]> input0_10_strides_0 = const()[name = tensor<string, []>("input0_10_strides_0"), val = tensor<int32, [2]>([2, 2])];
            tensor<int32, [2]> input0_10_dilations_0 = const()[name = tensor<string, []>("input0_10_dilations_0"), val = tensor<int32, [2]>([1, 1])];
            tensor<int32, []> input0_10_groups_0 = const()[name = tensor<string, []>("input0_10_groups_0"), val = tensor<int32, []>(1)];
            tensor<fp16, [64, 1, 7, 7]> const_0_to_fp16 = const()[name = tensor<string, []>("const_0_to_fp16"), val = tensor<fp16, [64, 1, 7, 7]>(BLOBFILE(path = tensor<string, []>("@model_path/weights/weight.bin"), offset = tensor<uint64, []>(899520)))];
            tensor<fp16, [64]> const_1_to_fp16 = const()[name = tensor<string, []>("const_1_to_fp16"), val = tensor<fp16, [64]>(BLOBFILE(path = tensor<string, []>("@model_path/weights/weight.bin"), offset = tensor<uint64, []>(905856)))];
            tensor<fp16, [1, 64, ?, ?]> input_143_cast_fp16 = conv(bias = const_1_to_fp16, dilations = input0_10_dilations_0, groups = input0_10_groups_0, pad = input0_10_pad_0, pad_type = input0_10_pad_type_0, strides = input0_10_strides_0, weight = const_0_to_fp16, x = input0_8_cast_fp16)[name = tensor<string, []>("input_143_cast_fp16")];
            tensor<fp16, [1, 64, ?, ?]> var_132_cast_fp16 = relu(x = input_143_cast_fp16)[name = tensor<string, []>("op_132_cast_fp16")];
            tensor<string, []> input_22_pad_type_0 = const()[name = tensor<string, []>("input_22_pad_type_0"), val = tensor<string, []>("valid")];
            tensor<int32, [2]> input_22_strides_0 = const()[name = tensor<string, []>("input_22_strides_0"), val = tensor<int32, [2]>([1, 1])];
            tensor<int32, [4]> input_22_pad_0 = const()[name = tensor<string, []>("input_22_pad_0"), val = tensor<int32, [4]>([0, 0, 0, 0])];
            tensor<int32, [2]> input_22_dilations_0 = const()[name = tensor<string, []>("input_22_dilations_0"), val = tensor<int32, [2]>([1, 1])];
            tensor<int32, []> input_22_groups_0 = const()[name = tensor<string, []>("input_22_groups_0"), val = tensor<int32, []>(1)];
            tensor<fp16, [128, 64, 1, 1]> const_2_to_fp16 = const()[name = tensor<string, []>("const_2_to_fp16"), val = tensor<fp16, [128, 64, 1, 1]>(BLOBFILE(path = tensor<string, []>("@model_path/weights/weight.bin"), offset = tensor<uint64, []>(906048)))];
            tensor<fp16, [128]> const_3_to_fp16 = const()[name = tensor<string, []>("const_3_to_fp16"), val = tensor<fp16, [128]>(BLOBFILE(path = tensor<string, []>("@model_path/weights/weight.bin"), offset = tensor<uint64, []>(922496)))];
            tensor<fp16, [1, 128, ?, ?]> input_24_cast_fp16 = conv(bias = const_3_to_fp16, dilations = input_22_dilations_0, groups = input_22_groups_0, pad = input_22_pad_0, pad_type = input_22_pad_type_0, strides = input_22_strides_0, weight = const_2_to_fp16, x = var_132_cast_fp16)[name = tensor<string, []>("input_24_cast_fp16")];
            tensor<fp16, [1, 128, ?, ?]> var_155_cast_fp16 = relu(x = input_24_cast_fp16)[name = tensor<string, []>("op_155_cast_fp16")];
            tensor<string, []> input_26_pad_type_0 = const()[name = tensor<string, []>("input_26_pad_type_0"), val = tensor<string, []>("custom")];
            tensor<int32, [4]> input_26_pad_0 = const()[name = tensor<string, []>("input_26_pad_0"), val = tensor<int32, [4]>([1, 1, 1, 1])];
            tensor<int32, []> input_26_groups_0 = const()[name = tensor<string, []>("input_26_groups_0"), val = tensor<int32, []>(32)];
            tensor<int32, [2]> input_26_strides_0 = const()[name = tensor<string, []>("input_26_strides_0"), val = tensor<int32, [2]>([1, 1])];
            tensor<int32, [2]> input_26_dilations_0 = const()[name = tensor<string, []>("input_26_dilations_0"), val = tensor<int32, [2]>([1, 1])];
            tensor<fp16, [128, 4, 3, 3]> const_4_to_fp16 = const()[name = tensor<string, []>("const_4_to_fp16"), val = tensor<fp16, [128, 4, 3, 3]>(BLOBFILE(path = tensor<string, []>("@model_path/weights/weight.bin"), offset = tensor<uint64, []>(922816)))];
            tensor<fp16, [128]> const_5_to_fp16 = const()[name = tensor<string, []>("const_5_to_fp16"), val = tensor<fp16, [128]>(BLOBFILE(path = tensor<string, []>("@model_path/weights/weight.bin"), offset = tensor<uint64, []>(932096)))];
            tensor<fp16, [1, 128, ?, ?]> input_28_cast_fp16 = conv(bias = const_5_to_fp16, dilations = input_26_dilations_0, groups = input_26_groups_0, pad = input_26_pad_0, pad_type = input_26_pad_type_0, strides = input_26_strides_0, weight = const_4_to_fp16, x = var_155_cast_fp16)[name = tensor<string, []>("input_28_cast_fp16")];
            tensor<fp16, [1, 128, ?, ?]> var_167_cast_fp16 = relu(x = input_28_cast_fp16)[name = tensor<string, []>("op_167_cast_fp16")];
            tensor<string, []> input_30_pad_type_0 = const()[name = tensor<string, []>("input_30_pad_type_0"), val = tensor<string, []>("valid")];
            tensor<int32, [2]> input_30_strides_0 = const()[name = tensor<string, []>("input_30_strides_0"), val = tensor<int32, [2]>([1, 1])];
            tensor<int32, [4]> input_30_pad_0 = const()[name = tensor<string, []>("input_30_pad_0"), val = tensor<int32, [4]>([0, 0, 0, 0])];
            tensor<int32, [2]> input_30_dilations_0 = const()[name = tensor<string, []>("input_30_dilations_0"), val = tensor<int32, [2]>([1, 1])];
            tensor<int32, []> input_30_groups_0 = const()[name = tensor<string, []>("input_30_groups_0"), val = tensor<int32, []>(1)];
            tensor<fp16, [256, 128, 1, 1]> const_6_to_fp16 = const()[name = tensor<string, []>("const_6_to_fp16"), val = tensor<fp16, [256, 128, 1, 1]>(BLOBFILE(path = tensor<string, []>("@model_path/weights/weight.bin"), offset = tensor<uint64, []>(932416)))];
            tensor<fp16, [256]> const_7_to_fp16 = const()[name = tensor<string, []>("const_7_to_fp16"), val = tensor<fp16, [256]>(BLOBFILE(path = tensor<string, []>("@model_path/weights/weight.bin"), offset = tensor<uint64, []>(998016)))];
            tensor<fp16, [1, 256, ?, ?]> input_32_cast_fp16 = conv(bias = const_7_to_fp16, dilations = input_30_dilations_0, groups = input_30_groups_0, pad = input_30_pad_0, pad_type = input_30_pad_type_0, strides = input_30_strides_0, weight = const_6_to_fp16, x = var_167_cast_fp16)[name = tensor<string, []>("input_32_cast_fp16")];
            tensor<int32, [2]> input_34_axes_0 = const()[name = tensor<string, []>("input_34_axes_0"), val = tensor<int32, [2]>([-2, -1])];
            tensor<bool, []> input_34_keep_dims_0 = const()[name = tensor<string, []>("input_34_keep_dims_0"), val = tensor<bool, []>(true)];
            tensor<fp16, [1, 256, 1, 1]> input_34_cast_fp16 = reduce_mean(axes = input_34_axes_0, keep_dims = input_34_keep_dims_0, x = input_32_cast_fp16)[name = tensor<string, []>("input_34_cast_fp16")];
            tensor<string, []> input_36_pad_type_0 = const()[name = tensor<string, []>("input_36_pad_type_0"), val = tensor<string, []>("valid")];
            tensor<int32, [2]> input_36_strides_0 = const()[name = tensor<string, []>("input_36_strides_0"), val = tensor<int32, [2]>([1, 1])];
            tensor<int32, [4]> input_36_pad_0 = const()[name = tensor<string, []>("input_36_pad_0"), val = tensor<int32, [4]>([0, 0, 0, 0])];
            tensor<int32, [2]> input_36_dilations_0 = const()[name = tensor<string, []>("input_36_dilations_0"), val = tensor<int32, [2]>([1, 1])];
            tensor<int32, []> input_36_groups_0 = const()[name = tensor<string, []>("input_36_groups_0"), val = tensor<int32, []>(1)];
            tensor<fp16, [16, 256, 1, 1]> model_generator_encoder_layer1_0_selayer_conv1_weight_to_fp16 = const()[name = tensor<string, []>("model_generator_encoder_layer1_0_selayer_conv1_weight_to_fp16"), val = tensor<fp16, [16, 256, 1, 1]>(BLOBFILE(path = tensor<string, []>("@model_path/weights/weight.bin"), offset = tensor<uint64, []>(998592)))];
            tensor<fp16, [16]> model_generator_encoder_layer1_0_selayer_conv1_bias_to_fp16 = const()[name = tensor<string, []>("model_generator_encoder_layer1_0_selayer_conv1_bias_to_fp16"), val = tensor<fp16, [16]>(BLOBFILE(path = tensor<string, []>("@model_path/weights/weight.bin"), offset = tensor<uint64, []>(1006848)))];
            tensor<fp16, [1, 16, 1, 1]> input_36_cast_fp16 = conv(bias = model_generator_encoder_layer1_0_selayer_conv1_bias_to_fp16, dilations = input_36_dilations_0, groups = input_36_groups_0, pad = input_36_pad_0, pad_type = input_36_pad_type_0, strides = input_36_strides_0, weight = model_generator_encoder_layer1_0_selayer_conv1_weight_to_fp16, x = input_34_cast_fp16)[name = tensor<string, []>("input_36_cast_fp16")];
            tensor<fp16, [1, 16, 1, 1]> var_190_cast_fp16 = relu(x = input_36_cast_fp16)[name = tensor<string, []>("op_190_cast_fp16")];
            tensor<string, []> input_38_pad_type_0 = const()[name = tensor<string, []>("input_38_pad_type_0"), val = tensor<string, []>("valid")];
            tensor<int32, [2]> input_38_strides_0 = const()[name = tensor<string, []>("input_38_strides_0"), val = tensor<int32, [2]>([1, 1])];
            tensor<int32, [4]> input_38_pad_0 = const()[name = tensor<string, []>("input_38_pad_0"), val = tensor<int32, [4]>([0, 0, 0, 0])];
            tensor<int32, [2]> input_38_dilations_0 = const()[name = tensor<string, []>("input_38_dilations_0"), val = tensor<int32, [2]>([1, 1])];
            tensor<int32, []> input_38_groups_0 = const()[name = tensor<string, []>("input_38_groups_0"), val = tensor<int32, []>(1)];
            tensor<fp16, [256, 16, 1, 1]> model_generator_encoder_layer1_0_selayer_conv2_weight_to_fp16 = const()[name = tensor<string, []>("model_generator_encoder_layer1_0_selayer_conv2_weight_to_fp16"), val = tensor<fp16, [256, 16, 1, 1]>(BLOBFILE(path = tensor<string, []>("@model_path/weights/weight.bin"), offset = tensor<uint64, []>(1006976)))];
            tensor<fp16, [256]> model_generator_encoder_layer1_0_selayer_conv2_bias_to_fp16 = const()[name = tensor<string, []>("model_generator_encoder_layer1_0_selayer_conv2_bias_to_fp16"), val = tensor<fp16, [256]>(BLOBFILE(path = tensor<string, []>("@model_path/weights/weight.bin"), offset = tensor<uint64, []>(1015232)))];
            tensor<fp16, [1, 256, 1, 1]> input_38_cast_fp16 = conv(bias = model_generator_encoder_layer1_0_selayer_conv2_bias_to_fp16, dilations = input_38_dilations_0, groups = input_38_groups_0, pad = input_38_pad_0, pad_type = input_38_pad_type_0, strides = input_38_strides_0, weight = model_generator_encoder_layer1_0_selayer_conv2_weight_to_fp16, x = var_190_cast_fp16)[name = tensor<string, []>("input_38_cast_fp16")];
            tensor<fp16, [1, 256, 1, 1]> var_198_cast_fp16 = sigmoid(x = input_38_cast_fp16)[name = tensor<string, []>("op_198_cast_fp16")];
            tensor<fp16, [1, 256, ?, ?]> var_199_cast_fp16 = mul(x = input_32_cast_fp16, y = var_198_cast_fp16)[name = tensor<string, []>("op_199_cast_fp16")];
            tensor<string, []> input_40_pad_type_0 = const()[name = tensor<string, []>("input_40_pad_type_0"), val = tensor<string, []>("valid")];
            tensor<int32, [2]> input_40_strides_0 = const()[name = tensor<string, []>("input_40_strides_0"), val = tensor<int32, [2]>([1, 1])];
            tensor<int32, [4]> input_40_pad_0 = const()[name = tensor<string, []>("input_40_pad_0"), val = tensor<int32, [4]>([0, 0, 0, 0])];
            tensor<int32, [2]> input_40_dilations_0 = const()[name = tensor<string, []>("input_40_dilations_0"), val = tensor<int32, [2]>([1, 1])];
            tensor<int32, []> input_40_groups_0 = const()[name = tensor<string, []>("input_40_groups_0"), val = tensor<int32, []>(1)];
            tensor<fp16, [256, 64, 1, 1]> const_8_to_fp16 = const()[name = tensor<string, []>("const_8_to_fp16"), val = tensor<fp16, [256, 64, 1, 1]>(BLOBFILE(path = tensor<string, []>("@model_path/weights/weight.bin"), offset = tensor<uint64, []>(1015808)))];
            tensor<fp16, [256]> const_9_to_fp16 = const()[name = tensor<string, []>("const_9_to_fp16"), val = tensor<fp16, [256]>(BLOBFILE(path = tensor<string, []>("@model_path/weights/weight.bin"), offset = tensor<uint64, []>(1048640)))];
            tensor<fp16, [1, 256, ?, ?]> residual_2_cast_fp16 = conv(bias = const_9_to_fp16, dilations = input_40_dilations_0, groups = input_40_groups_0, pad = input_40_pad_0, pad_type = input_40_pad_type_0, strides = input_40_strides_0, weight = const_8_to_fp16, x = var_132_cast_fp16)[name = tensor<string, []>("residual_2_cast_fp16")];
            tensor<fp16, [1, 256, ?, ?]> input_42_cast_fp16 = add(x = var_199_cast_fp16, y = residual_2_cast_fp16)[name = tensor<string, []>("input_42_cast_fp16")];
            tensor<fp16, [1, 256, ?, ?]> var_214_cast_fp16 = relu(x = input_42_cast_fp16)[name = tensor<string, []>("op_214_cast_fp16")];
            tensor<string, []> input_44_pad_type_0 = const()[name = tensor<string, []>("input_44_pad_type_0"), val = tensor<string, []>("valid")];
            tensor<int32, [2]> input_44_strides_0 = const()[name = tensor<string, []>("input_44_strides_0"), val = tensor<int32, [2]>([1, 1])];
            tensor<int32, [4]> input_44_pad_0 = const()[name = tensor<string, []>("input_44_pad_0"), val = tensor<int32, [4]>([0, 0, 0, 0])];
            tensor<int32, [2]> input_44_dilations_0 = const()[name = tensor<string, []>("input_44_dilations_0"), val = tensor<int32, [2]>([1, 1])];
            tensor<int32, []> input_44_groups_0 = const()[name = tensor<string, []>("input_44_groups_0"), val = tensor<int32, []>(1)];
            tensor<fp16, [128, 256, 1, 1]> const_10_to_fp16 = const()[name = tensor<string, []>("const_10_to_fp16"), val = tensor<fp16, [128, 256, 1, 1]>(BLOBFILE(path = tensor<string, []>("@model_path/weights/weight.bin"), offset = tensor<uint64, []>(1049216)))];
            tensor<fp16, [128]> const_11_to_fp16 = const()[name = tensor<string, []>("const_11_to_fp16"), val = tensor<fp16, [128]>(BLOBFILE(path = tensor<string, []>("@model_path/weights/weight.bin"), offset = tensor<uint64, []>(1114816)))];
            tensor<fp16, [1, 128, ?, ?]> input_46_cast_fp16 = conv(bias = const_11_to_fp16, dilations = input_44_dilations_0, groups = input_44_groups_0, pad = input_44_pad_0, pad_type = input_44_pad_type_0, strides = input_44_strides_0, weight = const_10_to_fp16, x = var_214_cast_fp16)[name = tensor<string, []>("input_46_cast_fp16")];
            tensor<fp16, [1, 128, ?, ?]> var_233_cast_fp16 = relu(x = input_46_cast_fp16)[name = tensor<string, []>("op_233_cast_fp16")];
            tensor<string, []> input_48_pad_type_0 = const()[name = tensor<string, []>("input_48_pad_type_0"), val = tensor<string, []>("custom")];
            tensor<int32, [4]> input_48_pad_0 = const()[name = tensor<string, []>("input_48_pad_0"), val = tensor<int32, [4]>([1, 1, 1, 1])];
            tensor<int32, []> input_48_groups_0 = const()[name = tensor<string, []>("input_48_groups_0"), val = tensor<int32, []>(32)];
            tensor<int32, [2]> input_48_strides_0 = const()[name = tensor<string, []>("input_48_strides_0"), val = tensor<int32, [2]>([1, 1])];
            tensor<int32, [2]> input_48_dilations_0 = const()[name = tensor<string, []>("input_48_dilations_0"), val = tensor<int32, [2]>([1, 1])];
            tensor<fp16, [128, 4, 3, 3]> const_12_to_fp16 = const()[name = tensor<string, []>("const_12_to_fp16"), val = tensor<fp16, [128, 4, 3, 3]>(BLOBFILE(path = tensor<string, []>("@model_path/weights/weight.bin"), offset = tensor<uint64, []>(1115136)))];
            tensor<fp16, [128]> const_13_to_fp16 = const()[name = tensor<string, []>("const_13_to_fp16"), val = tensor<fp16, [128]>(BLOBFILE(path = tensor<string, []>("@model_path/weights/weight.bin"), offset = tensor<uint64, []>(1124416)))];
            tensor<fp16, [1, 128, ?, ?]> input_50_cast_fp16 = conv(bias = const_13_to_fp16, dilations = input_48_dilations_0, groups = input_48_groups_0, pad = input_48_pad_0, pad_type = input_48_pad_type_0, strides = input_48_strides_0, weight = const_12_to_fp16, x = var_233_cast_fp16)[name = tensor<string, []>("input_50_cast_fp16")];
            tensor<fp16, [1, 128, ?, ?]> var_245_cast_fp16 = relu(x = input_50_cast_fp16)[name = tensor<string, []>("op_245_cast_fp16")];
            tensor<string, []> input_52_pad_type_0 = const()[name = tensor<string, []>("input_52_pad_type_0"), val = tensor<string, []>("valid")];
            tensor<int32, [2]> input_52_strides_0 = const()[name = tensor<string, []>("input_52_strides_0"), val = tensor<int32, [2]>([1, 1])];
            tensor<int32, [4]> input_52_pad_0 = const()[name = tensor<string, []>("input_52_pad_0"), val = tensor<int32, [4]>([0, 0, 0, 0])];
            tensor<int32, [2]> input_52_dilations_0 = const()[name = tensor<string, []>("input_52_dilations_0"), val = tensor<int32, [2]>([1, 1])];
            tensor<int32, []> input_52_groups_0 = const()[name = tensor<string, []>("input_52_groups_0"), val = tensor<int32, []>(1)];
            tensor<fp16, [256, 128, 1, 1]> const_14_to_fp16 = const()[name = tensor<string, []>("const_14_to_fp16"), val = tensor<fp16, [256, 128, 1, 1]>(BLOBFILE(path = tensor<string, []>("@model_path/weights/weight.bin"), offset = tensor<uint64, []>(1124736)))];
            tensor<fp16, [256]> const_15_to_fp16 = const()[name = tensor<string, []>("const_15_to_fp16"), val = tensor<fp16, [256]>(BLOBFILE(path = tensor<string, []>("@model_path/weights/weight.bin"), offset = tensor<uint64, []>(1190336)))];
            tensor<fp16, [1, 256, ?, ?]> input_54_cast_fp16 = conv(bias = const_15_to_fp16, dilations = input_52_dilations_0, groups = input_52_groups_0, pad = input_52_pad_0, pad_type = input_52_pad_type_0, strides = input_52_strides_0, weight = const_14_to_fp16, x = var_245_cast_fp16)[name = tensor<string, []>("input_54_cast_fp16")];
            tensor<int32, [2]> input_56_axes_0 = const()[name = tensor<string, []>("input_56_axes_0"), val = tensor<int32, [2]>([-2, -1])];
            tensor<bool, []> input_56_keep_dims_0 = const()[name = tensor<string, []>("input_56_keep_dims_0"), val = tensor<bool, []>(true)];
            tensor<fp16, [1, 256, 1, 1]> input_56_cast_fp16 = reduce_mean(axes = input_56_axes_0, keep_dims = input_56_keep_dims_0, x = input_54_cast_fp16)[name = tensor<string, []>("input_56_cast_fp16")];
            tensor<string, []> input_58_pad_type_0 = const()[name = tensor<string, []>("input_58_pad_type_0"), val = tensor<string, []>("valid")];
            tensor<int32, [2]> input_58_strides_0 = const()[name = tensor<string, []>("input_58_strides_0"), val = tensor<int32, [2]>([1, 1])];
            tensor<int32, [4]> input_58_pad_0 = const()[name = tensor<string, []>("input_58_pad_0"), val = tensor<int32, [4]>([0, 0, 0, 0])];
            tensor<int32, [2]> input_58_dilations_0 = const()[name = tensor<string, []>("input_58_dilations_0"), val = tensor<int32, [2]>([1, 1])];
            tensor<int32, []> input_58_groups_0 = const()[name = tensor<string, []>("input_58_groups_0"), val = tensor<int32, []>(1)];
            tensor<fp16, [16, 256, 1, 1]> model_generator_encoder_layer1_1_selayer_conv1_weight_to_fp16 = const()[name = tensor<string, []>("model_generator_encoder_layer1_1_selayer_conv1_weight_to_fp16"), val = tensor<fp16, [16, 256, 1, 1]>(BLOBFILE(path = tensor<string, []>("@model_path/weights/weight.bin"), offset = tensor<uint64, []>(1190912)))];
            tensor<fp16, [16]> model_generator_encoder_layer1_1_selayer_conv1_bias_to_fp16 = const()[name = tensor<string, []>("model_generator_encoder_layer1_1_selayer_conv1_bias_to_fp16"), val = tensor<fp16, [16]>(BLOBFILE(path = tensor<string, []>("@model_path/weights/weight.bin"), offset = tensor<uint64, []>(1199168)))];
            tensor<fp16, [1, 16, 1, 1]> input_58_cast_fp16 = conv(bias = model_generator_encoder_layer1_1_selayer_conv1_bias_to_fp16, dilations = input_58_dilations_0, groups = input_58_groups_0, pad = input_58_pad_0, pad_type = input_58_pad_type_0, strides = input_58_strides_0, weight = model_generator_encoder_layer1_1_selayer_conv1_weight_to_fp16, x = input_56_cast_fp16)[name = tensor<string, []>("input_58_cast_fp16")];
            tensor<fp16, [1, 16, 1, 1]> var_268_cast_fp16 = relu(x = input_58_cast_fp16)[name = tensor<string, []>("op_268_cast_fp16")];
            tensor<string, []> input_60_pad_type_0 = const()[name = tensor<string, []>("input_60_pad_type_0"), val = tensor<string, []>("valid")];
            tensor<int32, [2]> input_60_strides_0 = const()[name = tensor<string, []>("input_60_strides_0"), val = tensor<int32, [2]>([1, 1])];
            tensor<int32, [4]> input_60_pad_0 = const()[name = tensor<string, []>("input_60_pad_0"), val = tensor<int32, [4]>([0, 0, 0, 0])];
            tensor<int32, [2]> input_60_dilations_0 = const()[name = tensor<string, []>("input_60_dilations_0"), val = tensor<int32, [2]>([1, 1])];
            tensor<int32, []> input_60_groups_0 = const()[name = tensor<string, []>("input_60_groups_0"), val = tensor<int32, []>(1)];
            tensor<fp16, [256, 16, 1, 1]> model_generator_encoder_layer1_1_selayer_conv2_weight_to_fp16 = const()[name = tensor<string, []>("model_generator_encoder_layer1_1_selayer_conv2_weight_to_fp16"), val = tensor<fp16, [256, 16, 1, 1]>(BLOBFILE(path = tensor<string, []>("@model_path/weights/weight.bin"), offset = tensor<uint64, []>(1199296)))];
            tensor<fp16, [256]> model_generator_encoder_layer1_1_selayer_conv2_bias_to_fp16 = const()[name = tensor<string, []>("model_generator_encoder_layer1_1_selayer_conv2_bias_to_fp16"), val = tensor<fp16, [256]>(BLOBFILE(path = tensor<string, []>("@model_path/weights/weight.bin"), offset = tensor<uint64, []>(1207552)))];
            tensor<fp16, [1, 256, 1, 1]> input_60_cast_fp16 = conv(bias = model_generator_encoder_layer1_1_selayer_conv2_bias_to_fp16, dilations = input_60_dilations_0, groups = input_60_groups_0, pad = input_60_pad_0, pad_type = input_60_pad_type_0, strides = input_60_strides_0, weight = model_generator_encoder_layer1_1_selayer_conv2_weight_to_fp16, x = var_268_cast_fp16)[name = tensor<string, []>("input_60_cast_fp16")];
            tensor<fp16, [1, 256, 1, 1]> var_276_cast_fp16 = sigmoid(x = input_60_cast_fp16)[name = tensor<string, []>("op_276_cast_fp16")];
            tensor<fp16, [1, 256, ?, ?]> var_277_cast_fp16 = mul(x = input_54_cast_fp16, y = var_276_cast_fp16)[name = tensor<string, []>("op_277_cast_fp16")];
            tensor<fp16, [1, 256, ?, ?]> input_62_cast_fp16 = add(x = var_277_cast_fp16, y = var_214_cast_fp16)[name = tensor<string, []>("input_62_cast_fp16")];
            tensor<fp16, [1, 256, ?, ?]> var_279_cast_fp16 = relu(x = input_62_cast_fp16)[name = tensor<string, []>("op_279_cast_fp16")];
            tensor<string, []> input_64_pad_type_0 = const()[name = tensor<string, []>("input_64_pad_type_0"), val = tensor<string, []>("valid")];
            tensor<int32, [2]> input_64_strides_0 = const()[name = tensor<string, []>("input_64_strides_0"), val = tensor<int32, [2]>([1, 1])];
            tensor<int32, [4]> input_64_pad_0 = const()[name = tensor<string, []>("input_64_pad_0"), val = tensor<int32, [4]>([0, 0, 0, 0])];
            tensor<int32, [2]> input_64_dilations_0 = const()[name = tensor<string, []>("input_64_dilations_0"), val = tensor<int32, [2]>([1, 1])];
            tensor<int32, []> input_64_groups_0 = const()[name = tensor<string, []>("input_64_groups_0"), val = tensor<int32, []>(1)];
            tensor<fp16, [128, 256, 1, 1]> const_16_to_fp16 = const()[name = tensor<string, []>("const_16_to_fp16"), val = tensor<fp16, [128, 256, 1, 1]>(BLOBFILE(path = tensor<string, []>("@model_path/weights/weight.bin"), offset = tensor<uint64, []>(1208128)))];
            tensor<fp16, [128]> const_17_to_fp16 = const()[name = tensor<string, []>("const_17_to_fp16"), val = tensor<fp16, [128]>(BLOBFILE(path = tensor<string, []>("@model_path/weights/weight.bin"), offset = tensor<uint64, []>(1273728)))];
            tensor<fp16, [1, 128, ?, ?]> input_66_cast_fp16 = conv(bias = const_17_to_fp16, dilations = input_64_dilations_0, groups = input_64_groups_0, pad = input_64_pad_0, pad_type = input_64_pad_type_0, strides = input_64_strides_0, weight = const_16_to_fp16, x = var_279_cast_fp16)[name = tensor<string, []>("input_66_cast_fp16")];
            tensor<fp16, [1, 128, ?, ?]> var_298_cast_fp16 = relu(x = input_66_cast_fp16)[name = tensor<string, []>("op_298_cast_fp16")];
            tensor<string, []> input_68_pad_type_0 = const()[name = tensor<string, []>("input_68_pad_type_0"), val = tensor<string, []>("custom")];
            tensor<int32, [4]> input_68_pad_0 = const()[name = tensor<string, []>("input_68_pad_0"), val = tensor<int32, [4]>([1, 1, 1, 1])];
            tensor<int32, []> input_68_groups_0 = const()[name = tensor<string, []>("input_68_groups_0"), val = tensor<int32, []>(32)];
            tensor<int32, [2]> input_68_strides_0 = const()[name = tensor<string, []>("input_68_strides_0"), val = tensor<int32, [2]>([1, 1])];
            tensor<int32, [2]> input_68_dilations_0 = const()[name = tensor<string, []>("input_68_dilations_0"), val = tensor<int32, [2]>([1, 1])];
            tensor<fp16, [128, 4, 3, 3]> const_18_to_fp16 = const()[name = tensor<string, []>("const_18_to_fp16"), val = tensor<fp16, [128, 4, 3, 3]>(BLOBFILE(path = tensor<string, []>("@model_path/weights/weight.bin"), offset = tensor<uint64, []>(1274048)))];
            tensor<fp16, [128]> const_19_to_fp16 = const()[name = tensor<string, []>("const_19_to_fp16"), val = tensor<fp16, [128]>(BLOBFILE(path = tensor<string, []>("@model_path/weights/weight.bin"), offset = tensor<uint64, []>(1283328)))];
            tensor<fp16, [1, 128, ?, ?]> input_70_cast_fp16 = conv(bias = const_19_to_fp16, dilations = input_68_dilations_0, groups = input_68_groups_0, pad = input_68_pad_0, pad_type = input_68_pad_type_0, strides = input_68_strides_0, weight = const_18_to_fp16, x = var_298_cast_fp16)[name = tensor<string, []>("input_70_cast_fp16")];
            tensor<fp16, [1, 128, ?, ?]> var_310_cast_fp16 = relu(x = input_70_cast_fp16)[name = tensor<string, []>("op_310_cast_fp16")];
            tensor<string, []> input_72_pad_type_0 = const()[name = tensor<string, []>("input_72_pad_type_0"), val = tensor<string, []>("valid")];
            tensor<int32, [2]> input_72_strides_0 = const()[name = tensor<string, []>("input_72_strides_0"), val = tensor<int32, [2]>([1, 1])];
            tensor<int32, [4]> input_72_pad_0 = const()[name = tensor<string, []>("input_72_pad_0"), val = tensor<int32, [4]>([0, 0, 0, 0])];
            tensor<int32, [2]> input_72_dilations_0 = const()[name = tensor<string, []>("input_72_dilations_0"), val = tensor<int32, [2]>([1, 1])];
            tensor<int32, []> input_72_groups_0 = const()[name = tensor<string, []>("input_72_groups_0"), val = tensor<int32, []>(1)];
            tensor<fp16, [256, 128, 1, 1]> const_20_to_fp16 = const()[name = tensor<string, []>("const_20_to_fp16"), val = tensor<fp16, [256, 128, 1, 1]>(BLOBFILE(path = tensor<string, []>("@model_path/weights/weight.bin"), offset = tensor<uint64, []>(1283648)))];
            tensor<fp16, [256]> const_21_to_fp16 = const()[name = tensor<string, []>("const_21_to_fp16"), val = tensor<fp16, [256]>(BLOBFILE(path = tensor<string, []>("@model_path/weights/weight.bin"), offset = tensor<uint64, []>(1349248)))];
            tensor<fp16, [1, 256, ?, ?]> input_74_cast_fp16 = conv(bias = const_21_to_fp16, dilations = input_72_dilations_0, groups = input_72_groups_0, pad = input_72_pad_0, pad_type = input_72_pad_type_0, strides = input_72_strides_0, weight = const_20_to_fp16, x = var_310_cast_fp16)[name = tensor<string, []>("input_74_cast_fp16")];
            tensor<int32, [2]> input_76_axes_0 = const()[name = tensor<string, []>("input_76_axes_0"), val = tensor<int32, [2]>([-2, -1])];
            tensor<bool, []> input_76_keep_dims_0 = const()[name = tensor<string, []>("input_76_keep_dims_0"), val = tensor<bool, []>(true)];
            tensor<fp16, [1, 256, 1, 1]> input_76_cast_fp16 = reduce_mean(axes = input_76_axes_0, keep_dims = input_76_keep_dims_0, x = input_74_cast_fp16)[name = tensor<string, []>("input_76_cast_fp16")];
            tensor<string, []> input_78_pad_type_0 = const()[name = tensor<string, []>("input_78_pad_type_0"), val = tensor<string, []>("valid")];
            tensor<int32, [2]> input_78_strides_0 = const()[name = tensor<string, []>("input_78_strides_0"), val = tensor<int32, [2]>([1, 1])];
            tensor<int32, [4]> input_78_pad_0 = const()[name = tensor<string, []>("input_78_pad_0"), val = tensor<int32, [4]>([0, 0, 0, 0])];
            tensor<int32, [2]> input_78_dilations_0 = const()[name = tensor<string, []>("input_78_dilations_0"), val = tensor<int32, [2]>([1, 1])];
            tensor<int32, []> input_78_groups_0 = const()[name = tensor<string, []>("input_78_groups_0"), val = tensor<int32, []>(1)];
            tensor<fp16, [16, 256, 1, 1]> model_generator_encoder_layer1_2_selayer_conv1_weight_to_fp16 = const()[name = tensor<string, []>("model_generator_encoder_layer1_2_selayer_conv1_weight_to_fp16"), val = tensor<fp16, [16, 256, 1, 1]>(BLOBFILE(path = tensor<string, []>("@model_path/weights/weight.bin"), offset = tensor<uint64, []>(1349824)))];
            tensor<fp16, [16]> model_generator_encoder_layer1_2_selayer_conv1_bias_to_fp16 = const()[name = tensor<string, []>("model_generator_encoder_layer1_2_selayer_conv1_bias_to_fp16"), val = tensor<fp16, [16]>(BLOBFILE(path = tensor<string, []>("@model_path/weights/weight.bin"), offset = tensor<uint64, []>(1358080)))];
            tensor<fp16, [1, 16, 1, 1]> input_78_cast_fp16 = conv(bias = model_generator_encoder_layer1_2_selayer_conv1_bias_to_fp16, dilations = input_78_dilations_0, groups = input_78_groups_0, pad = input_78_pad_0, pad_type = input_78_pad_type_0, strides = input_78_strides_0, weight = model_generator_encoder_layer1_2_selayer_conv1_weight_to_fp16, x = input_76_cast_fp16)[name = tensor<string, []>("input_78_cast_fp16")];
            tensor<fp16, [1, 16, 1, 1]> var_333_cast_fp16 = relu(x = input_78_cast_fp16)[name = tensor<string, []>("op_333_cast_fp16")];
            tensor<string, []> input_80_pad_type_0 = const()[name = tensor<string, []>("input_80_pad_type_0"), val = tensor<string, []>("valid")];
            tensor<int32, [2]> input_80_strides_0 = const()[name = tensor<string, []>("input_80_strides_0"), val = tensor<int32, [2]>([1, 1])];
            tensor<int32, [4]> input_80_pad_0 = const()[name = tensor<string, []>("input_80_pad_0"), val = tensor<int32, [4]>([0, 0, 0, 0])];
            tensor<int32, [2]> input_80_dilations_0 = const()[name = tensor<string, []>("input_80_dilations_0"), val = tensor<int32, [2]>([1, 1])];
            tensor<int32, []> input_80_groups_0 = const()[name = tensor<string, []>("input_80_groups_0"), val = tensor<int32, []>(1)];
            tensor<fp16, [256, 16, 1, 1]> model_generator_encoder_layer1_2_selayer_conv2_weight_to_fp16 = const()[name = tensor<string, []>("model_generator_encoder_layer1_2_selayer_conv2_weight_to_fp16"), val = tensor<fp16, [256, 16, 1, 1]>(BLOBFILE(path = tensor<string, []>("@model_path/weights/weight.bin"), offset = tensor<uint64, []>(1358208)))];
            tensor<fp16, [256]> model_generator_encoder_layer1_2_selayer_conv2_bias_to_fp16 = const()[name = tensor<string, []>("model_generator_encoder_layer1_2_selayer_conv2_bias_to_fp16"), val = tensor<fp16, [256]>(BLOBFILE(path = tensor<string, []>("@model_path/weights/weight.bin"), offset = tensor<uint64, []>(1366464)))];
            tensor<fp16, [1, 256, 1, 1]> input_80_cast_fp16 = conv(bias = model_generator_encoder_layer1_2_selayer_conv2_bias_to_fp16, dilations = input_80_dilations_0, groups = input_80_groups_0, pad = input_80_pad_0, pad_type = input_80_pad_type_0, strides = input_80_strides_0, weight = model_generator_encoder_layer1_2_selayer_conv2_weight_to_fp16, x = var_333_cast_fp16)[name = tensor<string, []>("input_80_cast_fp16")];
            tensor<fp16, [1, 256, 1, 1]> var_341_cast_fp16 = sigmoid(x = input_80_cast_fp16)[name = tensor<string, []>("op_341_cast_fp16")];
            tensor<fp16, [1, 256, ?, ?]> var_342_cast_fp16 = mul(x = input_74_cast_fp16, y = var_341_cast_fp16)[name = tensor<string, []>("op_342_cast_fp16")];
            tensor<fp16, [1, 256, ?, ?]> input_82_cast_fp16 = add(x = var_342_cast_fp16, y = var_279_cast_fp16)[name = tensor<string, []>("input_82_cast_fp16")];
            tensor<fp16, [1, 256, ?, ?]> var_344_cast_fp16 = relu(x = input_82_cast_fp16)[name = tensor<string, []>("op_344_cast_fp16")];
            tensor<string, []> input_84_pad_type_0 = const()[name = tensor<string, []>("input_84_pad_type_0"), val = tensor<string, []>("valid")];
            tensor<int32, [2]> input_84_strides_0 = const()[name = tensor<string, []>("input_84_strides_0"), val = tensor<int32, [2]>([1, 1])];
            tensor<int32, [4]> input_84_pad_0 = const()[name = tensor<string, []>("input_84_pad_0"), val = tensor<int32, [4]>([0, 0, 0, 0])];
            tensor<int32, [2]> input_84_dilations_0 = const()[name = tensor<string, []>("input_84_dilations_0"), val = tensor<int32, [2]>([1, 1])];
            tensor<int32, []> input_84_groups_0 = const()[name = tensor<string, []>("input_84_groups_0"), val = tensor<int32, []>(1)];
            tensor<fp16, [256, 256, 1, 1]> const_22_to_fp16 = const()[name = tensor<string, []>("const_22_to_fp16"), val = tensor<fp16, [256, 256, 1, 1]>(BLOBFILE(path = tensor<string, []>("@model_path/weights/weight.bin"), offset = tensor<uint64, []>(1367040)))];
            tensor<fp16, [256]> const_23_to_fp16 = const()[name = tensor<string, []>("const_23_to_fp16"), val = tensor<fp16, [256]>(BLOBFILE(path = tensor<string, []>("@model_path/weights/weight.bin"), offset = tensor<uint64, []>(1498176)))];
            tensor<fp16, [1, 256, ?, ?]> input_86_cast_fp16 = conv(bias = const_23_to_fp16, dilations = input_84_dilations_0, groups = input_84_groups_0, pad = input_84_pad_0, pad_type = input_84_pad_type_0, strides = input_84_strides_0, weight = const_22_to_fp16, x = var_344_cast_fp16)[name = tensor<string, []>("input_86_cast_fp16")];
            tensor<fp16, [1, 256, ?, ?]> var_368_cast_fp16 = relu(x = input_86_cast_fp16)[name = tensor<string, []>("op_368_cast_fp16")];
            tensor<string, []> input_88_pad_type_0 = const()[name = tensor<string, []>("input_88_pad_type_0"), val = tensor<string, []>("custom")];
            tensor<int32, [4]> input_88_pad_0 = const()[name = tensor<string, []>("input_88_pad_0"), val = tensor<int32, [4]>([1, 1, 1, 1])];
            tensor<int32, [2]> input_88_strides_0 = const()[name = tensor<string, []>("input_88_strides_0"), val = tensor<int32, [2]>([2, 2])];
            tensor<int32, []> input_88_groups_0 = const()[name = tensor<string, []>("input_88_groups_0"), val = tensor<int32, []>(32)];
            tensor<int32, [2]> input_88_dilations_0 = const()[name = tensor<string, []>("input_88_dilations_0"), val = tensor<int32, [2]>([1, 1])];
            tensor<fp16, [256, 8, 3, 3]> const_24_to_fp16 = const()[name = tensor<string, []>("const_24_to_fp16"), val = tensor<fp16, [256, 8, 3, 3]>(BLOBFILE(path = tensor<string, []>("@model_path/weights/weight.bin"), offset = tensor<uint64, []>(1498752)))];
            tensor<fp16, [256]> const_25_to_fp16 = const()[name = tensor<string, []>("const_25_to_fp16"), val = tensor<fp16, [256]>(BLOBFILE(path = tensor<string, []>("@model_path/weights/weight.bin"), offset = tensor<uint64, []>(1535680)))];
            tensor<fp16, [1, 256, ?, ?]> input_90_cast_fp16 = conv(bias = const_25_to_fp16, dilations = input_88_dilations_0, groups = input_88_groups_0, pad = input_88_pad_0, pad_type = input_88_pad_type_0, strides = input_88_strides_0, weight = const_24_to_fp16, x = var_368_cast_fp16)[name = tensor<string, []>("input_90_cast_fp16")];
            tensor<fp16, [1, 256, ?, ?]> var_380_cast_fp16 = relu(x = input_90_cast_fp16)[name = tensor<string, []>("op_380_cast_fp16")];
            tensor<string, []> input_92_pad_type_0 = const()[name = tensor<string, []>("input_92_pad_type_0"), val = tensor<string, []>("valid")];
            tensor<int32, [2]> input_92_strides_0 = const()[name = tensor<string, []>("input_92_strides_0"), val = tensor<int32, [2]>([1, 1])];
            tensor<int32, [4]> input_92_pad_0 = const()[name = tensor<string, []>("input_92_pad_0"), val = tensor<int32, [4]>([0, 0, 0, 0])];
            tensor<int32, [2]> input_92_dilations_0 = const()[name = tensor<string, []>("input_92_dilations_0"), val = tensor<int32, [2]>([1, 1])];
            tensor<int32, []> input_92_groups_0 = const()[name = tensor<string, []>("input_92_groups_0"), val = tensor<int32, []>(1)];
            tensor<fp16, [512, 256, 1, 1]> const_26_to_fp16 = const()[name = tensor<string, []>("const_26_to_fp16"), val = tensor<fp16, [512, 256, 1, 1]>(BLOBFILE(path = tensor<string, []>("@model_path/weights/weight.bin"), offset = tensor<uint64, []>(1536256)))];
            tensor<fp16, [512]> const_27_to_fp16 = const()[name = tensor<string, []>("const_27_to_fp16"), val = tensor<fp16, [512]>(BLOBFILE(path = tensor<string, []>("@model_path/weights/weight.bin"), offset = tensor<uint64, []>(1798464)))];
            tensor<fp16, [1, 512, ?, ?]> input_94_cast_fp16 = conv(bias = const_27_to_fp16, dilations = input_92_dilations_0, groups = input_92_groups_0, pad = input_92_pad_0, pad_type = input_92_pad_type_0, strides = input_92_strides_0, weight = const_26_to_fp16, x = var_380_cast_fp16)[name = tensor<string, []>("input_94_cast_fp16")];
            tensor<int32, [2]> input_96_axes_0 = const()[name = tensor<string, []>("input_96_axes_0"), val = tensor<int32, [2]>([-2, -1])];
            tensor<bool, []> input_96_keep_dims_0 = const()[name = tensor<string, []>("input_96_keep_dims_0"), val = tensor<bool, []>(true)];
            tensor<fp16, [1, 512, 1, 1]> input_96_cast_fp16 = reduce_mean(axes = input_96_axes_0, keep_dims = input_96_keep_dims_0, x = input_94_cast_fp16)[name = tensor<string, []>("input_96_cast_fp16")];
            tensor<string, []> input_98_pad_type_0 = const()[name = tensor<string, []>("input_98_pad_type_0"), val = tensor<string, []>("valid")];
            tensor<int32, [2]> input_98_strides_0 = const()[name = tensor<string, []>("input_98_strides_0"), val = tensor<int32, [2]>([1, 1])];
            tensor<int32, [4]> input_98_pad_0 = const()[name = tensor<string, []>("input_98_pad_0"), val = tensor<int32, [4]>([0, 0, 0, 0])];
            tensor<int32, [2]> input_98_dilations_0 = const()[name = tensor<string, []>("input_98_dilations_0"), val = tensor<int32, [2]>([1, 1])];
            tensor<int32, []> input_98_groups_0 = const()[name = tensor<string, []>("input_98_groups_0"), val = tensor<int32, []>(1)];
            tensor<fp16, [32, 512, 1, 1]> model_generator_encoder_layer2_0_selayer_conv1_weight_to_fp16 = const()[name = tensor<string, []>("model_generator_encoder_layer2_0_selayer_conv1_weight_to_fp16"), val = tensor<fp16, [32, 512, 1, 1]>(BLOBFILE(path = tensor<string, []>("@model_path/weights/weight.bin"), offset = tensor<uint64, []>(1799552)))];
            tensor<fp16, [32]> model_generator_encoder_layer2_0_selayer_conv1_bias_to_fp16 = const()[name = tensor<string, []>("model_generator_encoder_layer2_0_selayer_conv1_bias_to_fp16"), val = tensor<fp16, [32]>(BLOBFILE(path = tensor<string, []>("@model_path/weights/weight.bin"), offset = tensor<uint64, []>(1832384)))];
            tensor<fp16, [1, 32, 1, 1]> input_98_cast_fp16 = conv(bias = model_generator_encoder_layer2_0_selayer_conv1_bias_to_fp16, dilations = input_98_dilations_0, groups = input_98_groups_0, pad = input_98_pad_0, pad_type = input_98_pad_type_0, strides = input_98_strides_0, weight = model_generator_encoder_layer2_0_selayer_conv1_weight_to_fp16, x = input_96_cast_fp16)[name = tensor<string, []>("input_98_cast_fp16")];
            tensor<fp16, [1, 32, 1, 1]> var_403_cast_fp16 = relu(x = input_98_cast_fp16)[name = tensor<string, []>("op_403_cast_fp16")];
            tensor<string, []> input_100_pad_type_0 = const()[name = tensor<string, []>("input_100_pad_type_0"), val = tensor<string, []>("valid")];
            tensor<int32, [2]> input_100_strides_0 = const()[name = tensor<string, []>("input_100_strides_0"), val = tensor<int32, [2]>([1, 1])];
            tensor<int32, [4]> input_100_pad_0 = const()[name = tensor<string, []>("input_100_pad_0"), val = tensor<int32, [4]>([0, 0, 0, 0])];
            tensor<int32, [2]> input_100_dilations_0 = const()[name = tensor<string, []>("input_100_dilations_0"), val = tensor<int32, [2]>([1, 1])];
            tensor<int32, []> input_100_groups_0 = const()[name = tensor<string, []>("input_100_groups_0"), val = tensor<int32, []>(1)];
            tensor<fp16, [512, 32, 1, 1]> model_generator_encoder_layer2_0_selayer_conv2_weight_to_fp16 = const()[name = tensor<string, []>("model_generator_encoder_layer2_0_selayer_conv2_weight_to_fp16"), val = tensor<fp16, [512, 32, 1, 1]>(BLOBFILE(path = tensor<string, []>("@model_path/weights/weight.bin"), offset = tensor<uint64, []>(1832512)))];
            tensor<fp16, [512]> model_generator_encoder_layer2_0_selayer_conv2_bias_to_fp16 = const()[name = tensor<string, []>("model_generator_encoder_layer2_0_selayer_conv2_bias_to_fp16"), val = tensor<fp16, [512]>(BLOBFILE(path = tensor<string, []>("@model_path/weights/weight.bin"), offset = tensor<uint64, []>(1865344)))];
            tensor<fp16, [1, 512, 1, 1]> input_100_cast_fp16 = conv(bias = model_generator_encoder_layer2_0_selayer_conv2_bias_to_fp16, dilations = input_100_dilations_0, groups = input_100_groups_0, pad = input_100_pad_0, pad_type = input_100_pad_type_0, strides = input_100_strides_0, weight = model_generator_encoder_layer2_0_selayer_conv2_weight_to_fp16, x = var_403_cast_fp16)[name = tensor<string, []>("input_100_cast_fp16")];
            tensor<fp16, [1, 512, 1, 1]> var_411_cast_fp16 = sigmoid(x = input_100_cast_fp16)[name = tensor<string, []>("op_411_cast_fp16")];
            tensor<fp16, [1, 512, ?, ?]> var_412_cast_fp16 = mul(x = input_94_cast_fp16, y = var_411_cast_fp16)[name = tensor<string, []>("op_412_cast_fp16")];
            tensor<string, []> input_102_pad_type_0 = const()[name = tensor<string, []>("input_102_pad_type_0"), val = tensor<string, []>("valid")];
            tensor<int32, [2]> input_102_strides_0 = const()[name = tensor<string, []>("input_102_strides_0"), val = tensor<int32, [2]>([2, 2])];
            tensor<int32, [4]> input_102_pad_0 = const()[name = tensor<string, []>("input_102_pad_0"), val = tensor<int32, [4]>([0, 0, 0, 0])];
            tensor<int32, [2]> input_102_dilations_0 = const()[name = tensor<string, []>("input_102_dilations_0"), val = tensor<int32, [2]>([1, 1])];
            tensor<int32, []> input_102_groups_0 = const()[name = tensor<string, []>("input_102_groups_0"), val = tensor<int32, []>(1)];
            tensor<fp16, [512, 256, 1, 1]> const_28_to_fp16 = const()[name = tensor<string, []>("const_28_to_fp16"), val = tensor<fp16, [512, 256, 1, 1]>(BLOBFILE(path = tensor<string, []>("@model_path/weights/weight.bin"), offset = tensor<uint64, []>(1866432)))];
            tensor<fp16, [512]> const_29_to_fp16 = const()[name = tensor<string, []>("const_29_to_fp16"), val = tensor<fp16, [512]>(BLOBFILE(path = tensor<string, []>("@model_path/weights/weight.bin"), offset = tensor<uint64, []>(2128640)))];
            tensor<fp16, [1, 512, ?, ?]> residual_4_cast_fp16 = conv(bias = const_29_to_fp16, dilations = input_102_dilations_0, groups = input_102_groups_0, pad = input_102_pad_0, pad_type = input_102_pad_type_0, strides = input_102_strides_0, weight = const_28_to_fp16, x = var_344_cast_fp16)[name = tensor<string, []>("residual_4_cast_fp16")];
            tensor<fp16, [1, 512, ?, ?]> input_104_cast_fp16 = add(x = var_412_cast_fp16, y = residual_4_cast_fp16)[name = tensor<string, []>("input_104_cast_fp16")];
            tensor<fp16, [1, 512, ?, ?]> var_427_cast_fp16 = relu(x = input_104_cast_fp16)[name = tensor<string, []>("op_427_cast_fp16")];
            tensor<string, []> input_106_pad_type_0 = const()[name = tensor<string, []>("input_106_pad_type_0"), val = tensor<string, []>("valid")];
            tensor<int32, [2]> input_106_strides_0 = const()[name = tensor<string, []>("input_106_strides_0"), val = tensor<int32, [2]>([1, 1])];
            tensor<int32, [4]> input_106_pad_0 = const()[name = tensor<string, []>("input_106_pad_0"), val = tensor<int32, [4]>([0, 0, 0, 0])];
            tensor<int32, [2]> input_106_dilations_0 = const()[name = tensor<string, []>("input_106_dilations_0"), val = tensor<int32, [2]>([1, 1])];
            tensor<int32, []> input_106_groups_0 = const()[name = tensor<string, []>("input_106_groups_0"), val = tensor<int32, []>(1)];
            tensor<fp16, [256, 512, 1, 1]> const_30_to_fp16 = const()[name = tensor<string, []>("const_30_to_fp16"), val = tensor<fp16, [256, 512, 1, 1]>(BLOBFILE(path = tensor<string, []>("@model_path/weights/weight.bin"), offset = tensor<uint64, []>(2129728)))];
            tensor<fp16, [256]> const_31_to_fp16 = const()[name = tensor<string, []>("const_31_to_fp16"), val = tensor<fp16, [256]>(BLOBFILE(path = tensor<string, []>("@model_path/weights/weight.bin"), offset = tensor<uint64, []>(2391936)))];
            tensor<fp16, [1, 256, ?, ?]> input_108_cast_fp16 = conv(bias = const_31_to_fp16, dilations = input_106_dilations_0, groups = input_106_groups_0, pad = input_106_pad_0, pad_type = input_106_pad_type_0, strides = input_106_strides_0, weight = const_30_to_fp16, x = var_427_cast_fp16)[name = tensor<string, []>("input_108_cast_fp16")];
            tensor<fp16, [1, 256, ?, ?]> var_446_cast_fp16 = relu(x = input_108_cast_fp16)[name = tensor<string, []>("op_446_cast_fp16")];
            tensor<string, []> input_110_pad_type_0 = const()[name = tensor<string, []>("input_110_pad_type_0"), val = tensor<string, []>("custom")];
            tensor<int32, [4]> input_110_pad_0 = const()[name = tensor<string, []>("input_110_pad_0"), val = tensor<int32, [4]>([1, 1, 1, 1])];
            tensor<int32, []> input_110_groups_0 = const()[name = tensor<string, []>("input_110_groups_0"), val = tensor<int32, []>(32)];
            tensor<int32, [2]> input_110_strides_0 = const()[name = tensor<string, []>("input_110_strides_0"), val = tensor<int32, [2]>([1, 1])];
            tensor<int32, [2]> input_110_dilations_0 = const()[name = tensor<string, []>("input_110_dilations_0"), val = tensor<int32, [2]>([1, 1])];
            tensor<fp16, [256, 8, 3, 3]> const_32_to_fp16 = const()[name = tensor<string, []>("const_32_to_fp16"), val = tensor<fp16, [256, 8, 3, 3]>(BLOBFILE(path = tensor<string, []>("@model_path/weights/weight.bin"), offset = tensor<uint64, []>(2392512)))];
            tensor<fp16, [256]> const_33_to_fp16 = const()[name = tensor<string, []>("const_33_to_fp16"), val = tensor<fp16, [256]>(BLOBFILE(path = tensor<string, []>("@model_path/weights/weight.bin"), offset = tensor<uint64, []>(2429440)))];
            tensor<fp16, [1, 256, ?, ?]> input_112_cast_fp16 = conv(bias = const_33_to_fp16, dilations = input_110_dilations_0, groups = input_110_groups_0, pad = input_110_pad_0, pad_type = input_110_pad_type_0, strides = input_110_strides_0, weight = const_32_to_fp16, x = var_446_cast_fp16)[name = tensor<string, []>("input_112_cast_fp16")];
            tensor<fp16, [1, 256, ?, ?]> var_458_cast_fp16 = relu(x = input_112_cast_fp16)[name = tensor<string, []>("op_458_cast_fp16")];
            tensor<string, []> input_114_pad_type_0 = const()[name = tensor<string, []>("input_114_pad_type_0"), val = tensor<string, []>("valid")];
            tensor<int32, [2]> input_114_strides_0 = const()[name = tensor<string, []>("input_114_strides_0"), val = tensor<int32, [2]>([1, 1])];
            tensor<int32, [4]> input_114_pad_0 = const()[name = tensor<string, []>("input_114_pad_0"), val = tensor<int32, [4]>([0, 0, 0, 0])];
            tensor<int32, [2]> input_114_dilations_0 = const()[name = tensor<string, []>("input_114_dilations_0"), val = tensor<int32, [2]>([1, 1])];
            tensor<int32, []> input_114_groups_0 = const()[name = tensor<string, []>("input_114_groups_0"), val = tensor<int32, []>(1)];
            tensor<fp16, [512, 256, 1, 1]> const_34_to_fp16 = const()[name = tensor<string, []>("const_34_to_fp16"), val = tensor<fp16, [512, 256, 1, 1]>(BLOBFILE(path = tensor<string, []>("@model_path/weights/weight.bin"), offset = tensor<uint64, []>(2430016)))];
            tensor<fp16, [512]> const_35_to_fp16 = const()[name = tensor<string, []>("const_35_to_fp16"), val = tensor<fp16, [512]>(BLOBFILE(path = tensor<string, []>("@model_path/weights/weight.bin"), offset = tensor<uint64, []>(2692224)))];
            tensor<fp16, [1, 512, ?, ?]> input_116_cast_fp16 = conv(bias = const_35_to_fp16, dilations = input_114_dilations_0, groups = input_114_groups_0, pad = input_114_pad_0, pad_type = input_114_pad_type_0, strides = input_114_strides_0, weight = const_34_to_fp16, x = var_458_cast_fp16)[name = tensor<string, []>("input_116_cast_fp16")];
            tensor<int32, [2]> input_118_axes_0 = const()[name = tensor<string, []>("input_118_axes_0"), val = tensor<int32, [2]>([-2, -1])];
            tensor<bool, []> input_118_keep_dims_0 = const()[name = tensor<string, []>("input_118_keep_dims_0"), val = tensor<bool, []>(true)];
            tensor<fp16, [1, 512, 1, 1]> input_118_cast_fp16 = reduce_mean(axes = input_118_axes_0, keep_dims = input_118_keep_dims_0, x = input_116_cast_fp16)[name = tensor<string, []>("input_118_cast_fp16")];
            tensor<string, []> input_120_pad_type_0 = const()[name = tensor<string, []>("input_120_pad_type_0"), val = tensor<string, []>("valid")];
            tensor<int32, [2]> input_120_strides_0 = const()[name = tensor<string, []>("input_120_strides_0"), val = tensor<int32, [2]>([1, 1])];
            tensor<int32, [4]> input_120_pad_0 = const()[name = tensor<string, []>("input_120_pad_0"), val = tensor<int32, [4]>([0, 0, 0, 0])];
            tensor<int32, [2]> input_120_dilations_0 = const()[name = tensor<string, []>("input_120_dilations_0"), val = tensor<int32, [2]>([1, 1])];
            tensor<int32, []> input_120_groups_0 = const()[name = tensor<string, []>("input_120_groups_0"), val = tensor<int32, []>(1)];
            tensor<fp16, [32, 512, 1, 1]> model_generator_encoder_layer2_1_selayer_conv1_weight_to_fp16 = const()[name = tensor<string, []>("model_generator_encoder_layer2_1_selayer_conv1_weight_to_fp16"), val = tensor<fp16, [32, 512, 1, 1]>(BLOBFILE(path = tensor<string, []>("@model_path/weights/weight.bin"), offset = tensor<uint64, []>(2693312)))];
            tensor<fp16, [32]> model_generator_encoder_layer2_1_selayer_conv1_bias_to_fp16 = const()[name = tensor<string, []>("model_generator_encoder_layer2_1_selayer_conv1_bias_to_fp16"), val = tensor<fp16, [32]>(BLOBFILE(path = tensor<string, []>("@model_path/weights/weight.bin"), offset = tensor<uint64, []>(2726144)))];
            tensor<fp16, [1, 32, 1, 1]> input_120_cast_fp16 = conv(bias = model_generator_encoder_layer2_1_selayer_conv1_bias_to_fp16, dilations = input_120_dilations_0, groups = input_120_groups_0, pad = input_120_pad_0, pad_type = input_120_pad_type_0, strides = input_120_strides_0, weight = model_generator_encoder_layer2_1_selayer_conv1_weight_to_fp16, x = input_118_cast_fp16)[name = tensor<string, []>("input_120_cast_fp16")];
            tensor<fp16, [1, 32, 1, 1]> var_481_cast_fp16 = relu(x = input_120_cast_fp16)[name = tensor<string, []>("op_481_cast_fp16")];
            tensor<string, []> input_122_pad_type_0 = const()[name = tensor<string, []>("input_122_pad_type_0"), val = tensor<string, []>("valid")];
            tensor<int32, [2]> input_122_strides_0 = const()[name = tensor<string, []>("input_122_strides_0"), val = tensor<int32, [2]>([1, 1])];
            tensor<int32, [4]> input_122_pad_0 = const()[name = tensor<string, []>("input_122_pad_0"), val = tensor<int32, [4]>([0, 0, 0, 0])];
            tensor<int32, [2]> input_122_dilations_0 = const()[name = tensor<string, []>("input_122_dilations_0"), val = tensor<int32, [2]>([1, 1])];
            tensor<int32, []> input_122_groups_0 = const()[name = tensor<string, []>("input_122_groups_0"), val = tensor<int32, []>(1)];
            tensor<fp16, [512, 32, 1, 1]> model_generator_encoder_layer2_1_selayer_conv2_weight_to_fp16 = const()[name = tensor<string, []>("model_generator_encoder_layer2_1_selayer_conv2_weight_to_fp16"), val = tensor<fp16, [512, 32, 1, 1]>(BLOBFILE(path = tensor<string, []>("@model_path/weights/weight.bin"), offset = tensor<uint64, []>(2726272)))];
            tensor<fp16, [512]> model_generator_encoder_layer2_1_selayer_conv2_bias_to_fp16 = const()[name = tensor<string, []>("model_generator_encoder_layer2_1_selayer_conv2_bias_to_fp16"), val = tensor<fp16, [512]>(BLOBFILE(path = tensor<string, []>("@model_path/weights/weight.bin"), offset = tensor<uint64, []>(2759104)))];
            tensor<fp16, [1, 512, 1, 1]> input_122_cast_fp16 = conv(bias = model_generator_encoder_layer2_1_selayer_conv2_bias_to_fp16, dilations = input_122_dilations_0, groups = input_122_groups_0, pad = input_122_pad_0, pad_type = input_122_pad_type_0, strides = input_122_strides_0, weight = model_generator_encoder_layer2_1_selayer_conv2_weight_to_fp16, x = var_481_cast_fp16)[name = tensor<string, []>("input_122_cast_fp16")];
            tensor<fp16, [1, 512, 1, 1]> var_489_cast_fp16 = sigmoid(x = input_122_cast_fp16)[name = tensor<string, []>("op_489_cast_fp16")];
            tensor<fp16, [1, 512, ?, ?]> var_490_cast_fp16 = mul(x = input_116_cast_fp16, y = var_489_cast_fp16)[name = tensor<string, []>("op_490_cast_fp16")];
            tensor<fp16, [1, 512, ?, ?]> input_124_cast_fp16 = add(x = var_490_cast_fp16, y = var_427_cast_fp16)[name = tensor<string, []>("input_124_cast_fp16")];
            tensor<fp16, [1, 512, ?, ?]> var_492_cast_fp16 = relu(x = input_124_cast_fp16)[name = tensor<string, []>("op_492_cast_fp16")];
            tensor<string, []> input_126_pad_type_0 = const()[name = tensor<string, []>("input_126_pad_type_0"), val = tensor<string, []>("valid")];
            tensor<int32, [2]> input_126_strides_0 = const()[name = tensor<string, []>("input_126_strides_0"), val = tensor<int32, [2]>([1, 1])];
            tensor<int32, [4]> input_126_pad_0 = const()[name = tensor<string, []>("input_126_pad_0"), val = tensor<int32, [4]>([0, 0, 0, 0])];
            tensor<int32, [2]> input_126_dilations_0 = const()[name = tensor<string, []>("input_126_dilations_0"), val = tensor<int32, [2]>([1, 1])];
            tensor<int32, []> input_126_groups_0 = const()[name = tensor<string, []>("input_126_groups_0"), val = tensor<int32, []>(1)];
            tensor<fp16, [256, 512, 1, 1]> const_36_to_fp16 = const()[name = tensor<string, []>("const_36_to_fp16"), val = tensor<fp16, [256, 512, 1, 1]>(BLOBFILE(path = tensor<string, []>("@model_path/weights/weight.bin"), offset = tensor<uint64, []>(2760192)))];
            tensor<fp16, [256]> const_37_to_fp16 = const()[name = tensor<string, []>("const_37_to_fp16"), val = tensor<fp16, [256]>(BLOBFILE(path = tensor<string, []>("@model_path/weights/weight.bin"), offset = tensor<uint64, []>(3022400)))];
            tensor<fp16, [1, 256, ?, ?]> input_128_cast_fp16 = conv(bias = const_37_to_fp16, dilations = input_126_dilations_0, groups = input_126_groups_0, pad = input_126_pad_0, pad_type = input_126_pad_type_0, strides = input_126_strides_0, weight = const_36_to_fp16, x = var_492_cast_fp16)[name = tensor<string, []>("input_128_cast_fp16")];
            tensor<fp16, [1, 256, ?, ?]> var_511_cast_fp16 = relu(x = input_128_cast_fp16)[name = tensor<string, []>("op_511_cast_fp16")];
            tensor<string, []> input_130_pad_type_0 = const()[name = tensor<string, []>("input_130_pad_type_0"), val = tensor<string, []>("custom")];
            tensor<int32, [4]> input_130_pad_0 = const()[name = tensor<string, []>("input_130_pad_0"), val = tensor<int32, [4]>([1, 1, 1, 1])];
            tensor<int32, []> input_130_groups_0 = const()[name = tensor<string, []>("input_130_groups_0"), val = tensor<int32, []>(32)];
            tensor<int32, [2]> input_130_strides_0 = const()[name = tensor<string, []>("input_130_strides_0"), val = tensor<int32, [2]>([1, 1])];
            tensor<int32, [2]> input_130_dilations_0 = const()[name = tensor<string, []>("input_130_dilations_0"), val = tensor<int32, [2]>([1, 1])];
            tensor<fp16, [256, 8, 3, 3]> const_38_to_fp16 = const()[name = tensor<string, []>("const_38_to_fp16"), val = tensor<fp16, [256, 8, 3, 3]>(BLOBFILE(path = tensor<string, []>("@model_path/weights/weight.bin"), offset = tensor<uint64, []>(3022976)))];
            tensor<fp16, [256]> const_39_to_fp16 = const()[name = tensor<string, []>("const_39_to_fp16"), val = tensor<fp16, [256]>(BLOBFILE(path = tensor<string, []>("@model_path/weights/weight.bin"), offset = tensor<uint64, []>(3059904)))];
            tensor<fp16, [1, 256, ?, ?]> input_132_cast_fp16 = conv(bias = const_39_to_fp16, dilations = input_130_dilations_0, groups = input_130_groups_0, pad = input_130_pad_0, pad_type = input_130_pad_type_0, strides = input_130_strides_0, weight = const_38_to_fp16, x = var_511_cast_fp16)[name = tensor<string, []>("input_132_cast_fp16")];
            tensor<fp16, [1, 256, ?, ?]> var_523_cast_fp16 = relu(x = input_132_cast_fp16)[name = tensor<string, []>("op_523_cast_fp16")];
            tensor<string, []> input_134_pad_type_0 = const()[name = tensor<string, []>("input_134_pad_type_0"), val = tensor<string, []>("valid")];
            tensor<int32, [2]> input_134_strides_0 = const()[name = tensor<string, []>("input_134_strides_0"), val = tensor<int32, [2]>([1, 1])];
            tensor<int32, [4]> input_134_pad_0 = const()[name = tensor<string, []>("input_134_pad_0"), val = tensor<int32, [4]>([0, 0, 0, 0])];
            tensor<int32, [2]> input_134_dilations_0 = const()[name = tensor<string, []>("input_134_dilations_0"), val = tensor<int32, [2]>([1, 1])];
            tensor<int32, []> input_134_groups_0 = const()[name = tensor<string, []>("input_134_groups_0"), val = tensor<int32, []>(1)];
            tensor<fp16, [512, 256, 1, 1]> const_40_to_fp16 = const()[name = tensor<string, []>("const_40_to_fp16"), val = tensor<fp16, [512, 256, 1, 1]>(BLOBFILE(path = tensor<string, []>("@model_path/weights/weight.bin"), offset = tensor<uint64, []>(3060480)))];
            tensor<fp16, [512]> const_41_to_fp16 = const()[name = tensor<string, []>("const_41_to_fp16"), val = tensor<fp16, [512]>(BLOBFILE(path = tensor<string, []>("@model_path/weights/weight.bin"), offset = tensor<uint64, []>(3322688)))];
            tensor<fp16, [1, 512, ?, ?]> input_136_cast_fp16 = conv(bias = const_41_to_fp16, dilations = input_134_dilations_0, groups = input_134_groups_0, pad = input_134_pad_0, pad_type = input_134_pad_type_0, strides = input_134_strides_0, weight = const_40_to_fp16, x = var_523_cast_fp16)[name = tensor<string, []>("input_136_cast_fp16")];
            tensor<int32, [2]> input_138_axes_0 = const()[name = tensor<string, []>("input_138_axes_0"), val = tensor<int32, [2]>([-2, -1])];
            tensor<bool, []> input_138_keep_dims_0 = const()[name = tensor<string, []>("input_138_keep_dims_0"), val = tensor<bool, []>(true)];
            tensor<fp16, [1, 512, 1, 1]> input_138_cast_fp16 = reduce_mean(axes = input_138_axes_0, keep_dims = input_138_keep_dims_0, x = input_136_cast_fp16)[name = tensor<string, []>("input_138_cast_fp16")];
            tensor<string, []> input_140_pad_type_0 = const()[name = tensor<string, []>("input_140_pad_type_0"), val = tensor<string, []>("valid")];
            tensor<int32, [2]> input_140_strides_0 = const()[name = tensor<string, []>("input_140_strides_0"), val = tensor<int32, [2]>([1, 1])];
            tensor<int32, [4]> input_140_pad_0 = const()[name = tensor<string, []>("input_140_pad_0"), val = tensor<int32, [4]>([0, 0, 0, 0])];
            tensor<int32, [2]> input_140_dilations_0 = const()[name = tensor<string, []>("input_140_dilations_0"), val = tensor<int32, [2]>([1, 1])];
            tensor<int32, []> input_140_groups_0 = const()[name = tensor<string, []>("input_140_groups_0"), val = tensor<int32, []>(1)];
            tensor<fp16, [32, 512, 1, 1]> model_generator_encoder_layer2_2_selayer_conv1_weight_to_fp16 = const()[name = tensor<string, []>("model_generator_encoder_layer2_2_selayer_conv1_weight_to_fp16"), val = tensor<fp16, [32, 512, 1, 1]>(BLOBFILE(path = tensor<string, []>("@model_path/weights/weight.bin"), offset = tensor<uint64, []>(3323776)))];
            tensor<fp16, [32]> model_generator_encoder_layer2_2_selayer_conv1_bias_to_fp16 = const()[name = tensor<string, []>("model_generator_encoder_layer2_2_selayer_conv1_bias_to_fp16"), val = tensor<fp16, [32]>(BLOBFILE(path = tensor<string, []>("@model_path/weights/weight.bin"), offset = tensor<uint64, []>(3356608)))];
            tensor<fp16, [1, 32, 1, 1]> input_140_cast_fp16 = conv(bias = model_generator_encoder_layer2_2_selayer_conv1_bias_to_fp16, dilations = input_140_dilations_0, groups = input_140_groups_0, pad = input_140_pad_0, pad_type = input_140_pad_type_0, strides = input_140_strides_0, weight = model_generator_encoder_layer2_2_selayer_conv1_weight_to_fp16, x = input_138_cast_fp16)[name = tensor<string, []>("input_140_cast_fp16")];
            tensor<fp16, [1, 32, 1, 1]> var_546_cast_fp16 = relu(x = input_140_cast_fp16)[name = tensor<string, []>("op_546_cast_fp16")];
            tensor<string, []> input_142_pad_type_0 = const()[name = tensor<string, []>("input_142_pad_type_0"), val = tensor<string, []>("valid")];
            tensor<int32, [2]> input_142_strides_0 = const()[name = tensor<string, []>("input_142_strides_0"), val = tensor<int32, [2]>([1, 1])];
            tensor<int32, [4]> input_142_pad_0 = const()[name = tensor<string, []>("input_142_pad_0"), val = tensor<int32, [4]>([0, 0, 0, 0])];
            tensor<int32, [2]> input_142_dilations_0 = const()[name = tensor<string, []>("input_142_dilations_0"), val = tensor<int32, [2]>([1, 1])];
            tensor<int32, []> input_142_groups_0 = const()[name = tensor<string, []>("input_142_groups_0"), val = tensor<int32, []>(1)];
            tensor<fp16, [512, 32, 1, 1]> model_generator_encoder_layer2_2_selayer_conv2_weight_to_fp16 = const()[name = tensor<string, []>("model_generator_encoder_layer2_2_selayer_conv2_weight_to_fp16"), val = tensor<fp16, [512, 32, 1, 1]>(BLOBFILE(path = tensor<string, []>("@model_path/weights/weight.bin"), offset = tensor<uint64, []>(3356736)))];
            tensor<fp16, [512]> model_generator_encoder_layer2_2_selayer_conv2_bias_to_fp16 = const()[name = tensor<string, []>("model_generator_encoder_layer2_2_selayer_conv2_bias_to_fp16"), val = tensor<fp16, [512]>(BLOBFILE(path = tensor<string, []>("@model_path/weights/weight.bin"), offset = tensor<uint64, []>(3389568)))];
            tensor<fp16, [1, 512, 1, 1]> input_142_cast_fp16 = conv(bias = model_generator_encoder_layer2_2_selayer_conv2_bias_to_fp16, dilations = input_142_dilations_0, groups = input_142_groups_0, pad = input_142_pad_0, pad_type = input_142_pad_type_0, strides = input_142_strides_0, weight = model_generator_encoder_layer2_2_selayer_conv2_weight_to_fp16, x = var_546_cast_fp16)[name = tensor<string, []>("input_142_cast_fp16")];
            tensor<fp16, [1, 512, 1, 1]> var_554_cast_fp16 = sigmoid(x = input_142_cast_fp16)[name = tensor<string, []>("op_554_cast_fp16")];
            tensor<fp16, [1, 512, ?, ?]> var_555_cast_fp16 = mul(x = input_136_cast_fp16, y = var_554_cast_fp16)[name = tensor<string, []>("op_555_cast_fp16")];
            tensor<fp16, [1, 512, ?, ?]> input_144_cast_fp16 = add(x = var_555_cast_fp16, y = var_492_cast_fp16)[name = tensor<string, []>("input_144_cast_fp16")];
            tensor<fp16, [1, 512, ?, ?]> var_557_cast_fp16 = relu(x = input_144_cast_fp16)[name = tensor<string, []>("op_557_cast_fp16")];
            tensor<string, []> input_146_pad_type_0 = const()[name = tensor<string, []>("input_146_pad_type_0"), val = tensor<string, []>("valid")];
            tensor<int32, [2]> input_146_strides_0 = const()[name = tensor<string, []>("input_146_strides_0"), val = tensor<int32, [2]>([1, 1])];
            tensor<int32, [4]> input_146_pad_0 = const()[name = tensor<string, []>("input_146_pad_0"), val = tensor<int32, [4]>([0, 0, 0, 0])];
            tensor<int32, [2]> input_146_dilations_0 = const()[name = tensor<string, []>("input_146_dilations_0"), val = tensor<int32, [2]>([1, 1])];
            tensor<int32, []> input_146_groups_0 = const()[name = tensor<string, []>("input_146_groups_0"), val = tensor<int32, []>(1)];
            tensor<fp16, [256, 512, 1, 1]> const_42_to_fp16 = const()[name = tensor<string, []>("const_42_to_fp16"), val = tensor<fp16, [256, 512, 1, 1]>(BLOBFILE(path = tensor<string, []>("@model_path/weights/weight.bin"), offset = tensor<uint64, []>(3390656)))];
            tensor<fp16, [256]> const_43_to_fp16 = const()[name = tensor<string, []>("const_43_to_fp16"), val = tensor<fp16, [256]>(BLOBFILE(path = tensor<string, []>("@model_path/weights/weight.bin"), offset = tensor<uint64, []>(3652864)))];
            tensor<fp16, [1, 256, ?, ?]> input_148_cast_fp16 = conv(bias = const_43_to_fp16, dilations = input_146_dilations_0, groups = input_146_groups_0, pad = input_146_pad_0, pad_type = input_146_pad_type_0, strides = input_146_strides_0, weight = const_42_to_fp16, x = var_557_cast_fp16)[name = tensor<string, []>("input_148_cast_fp16")];
            tensor<fp16, [1, 256, ?, ?]> var_576_cast_fp16 = relu(x = input_148_cast_fp16)[name = tensor<string, []>("op_576_cast_fp16")];
            tensor<string, []> input_150_pad_type_0 = const()[name = tensor<string, []>("input_150_pad_type_0"), val = tensor<string, []>("custom")];
            tensor<int32, [4]> input_150_pad_0 = const()[name = tensor<string, []>("input_150_pad_0"), val = tensor<int32, [4]>([1, 1, 1, 1])];
            tensor<int32, []> input_150_groups_0 = const()[name = tensor<string, []>("input_150_groups_0"), val = tensor<int32, []>(32)];
            tensor<int32, [2]> input_150_strides_0 = const()[name = tensor<string, []>("input_150_strides_0"), val = tensor<int32, [2]>([1, 1])];
            tensor<int32, [2]> input_150_dilations_0 = const()[name = tensor<string, []>("input_150_dilations_0"), val = tensor<int32, [2]>([1, 1])];
            tensor<fp16, [256, 8, 3, 3]> const_44_to_fp16 = const()[name = tensor<string, []>("const_44_to_fp16"), val = tensor<fp16, [256, 8, 3, 3]>(BLOBFILE(path = tensor<string, []>("@model_path/weights/weight.bin"), offset = tensor<uint64, []>(3653440)))];
            tensor<fp16, [256]> const_45_to_fp16 = const()[name = tensor<string, []>("const_45_to_fp16"), val = tensor<fp16, [256]>(BLOBFILE(path = tensor<string, []>("@model_path/weights/weight.bin"), offset = tensor<uint64, []>(3690368)))];
            tensor<fp16, [1, 256, ?, ?]> input_152_cast_fp16 = conv(bias = const_45_to_fp16, dilations = input_150_dilations_0, groups = input_150_groups_0, pad = input_150_pad_0, pad_type = input_150_pad_type_0, strides = input_150_strides_0, weight = const_44_to_fp16, x = var_576_cast_fp16)[name = tensor<string, []>("input_152_cast_fp16")];
            tensor<fp16, [1, 256, ?, ?]> var_588_cast_fp16 = relu(x = input_152_cast_fp16)[name = tensor<string, []>("op_588_cast_fp16")];
            tensor<string, []> input_154_pad_type_0 = const()[name = tensor<string, []>("input_154_pad_type_0"), val = tensor<string, []>("valid")];
            tensor<int32, [2]> input_154_strides_0 = const()[name = tensor<string, []>("input_154_strides_0"), val = tensor<int32, [2]>([1, 1])];
            tensor<int32, [4]> input_154_pad_0 = const()[name = tensor<string, []>("input_154_pad_0"), val = tensor<int32, [4]>([0, 0, 0, 0])];
            tensor<int32, [2]> input_154_dilations_0 = const()[name = tensor<string, []>("input_154_dilations_0"), val = tensor<int32, [2]>([1, 1])];
            tensor<int32, []> input_154_groups_0 = const()[name = tensor<string, []>("input_154_groups_0"), val = tensor<int32, []>(1)];
            tensor<fp16, [512, 256, 1, 1]> const_46_to_fp16 = const()[name = tensor<string, []>("const_46_to_fp16"), val = tensor<fp16, [512, 256, 1, 1]>(BLOBFILE(path = tensor<string, []>("@model_path/weights/weight.bin"), offset = tensor<uint64, []>(3690944)))];
            tensor<fp16, [512]> const_47_to_fp16 = const()[name = tensor<string, []>("const_47_to_fp16"), val = tensor<fp16, [512]>(BLOBFILE(path = tensor<string, []>("@model_path/weights/weight.bin"), offset = tensor<uint64, []>(3953152)))];
            tensor<fp16, [1, 512, ?, ?]> input_156_cast_fp16 = conv(bias = const_47_to_fp16, dilations = input_154_dilations_0, groups = input_154_groups_0, pad = input_154_pad_0, pad_type = input_154_pad_type_0, strides = input_154_strides_0, weight = const_46_to_fp16, x = var_588_cast_fp16)[name = tensor<string, []>("input_156_cast_fp16")];
            tensor<int32, [2]> input_158_axes_0 = const()[name = tensor<string, []>("input_158_axes_0"), val = tensor<int32, [2]>([-2, -1])];
            tensor<bool, []> input_158_keep_dims_0 = const()[name = tensor<string, []>("input_158_keep_dims_0"), val = tensor<bool, []>(true)];
            tensor<fp16, [1, 512, 1, 1]> input_158_cast_fp16 = reduce_mean(axes = input_158_axes_0, keep_dims = input_158_keep_dims_0, x = input_156_cast_fp16)[name = tensor<string, []>("input_158_cast_fp16")];
            tensor<string, []> input_160_pad_type_0 = const()[name = tensor<string, []>("input_160_pad_type_0"), val = tensor<string, []>("valid")];
            tensor<int32, [2]> input_160_strides_0 = const()[name = tensor<string, []>("input_160_strides_0"), val = tensor<int32, [2]>([1, 1])];
            tensor<int32, [4]> input_160_pad_0 = const()[name = tensor<string, []>("input_160_pad_0"), val = tensor<int32, [4]>([0, 0, 0, 0])];
            tensor<int32, [2]> input_160_dilations_0 = const()[name = tensor<string, []>("input_160_dilations_0"), val = tensor<int32, [2]>([1, 1])];
            tensor<int32, []> input_160_groups_0 = const()[name = tensor<string, []>("input_160_groups_0"), val = tensor<int32, []>(1)];
            tensor<fp16, [32, 512, 1, 1]> model_generator_encoder_layer2_3_selayer_conv1_weight_to_fp16 = const()[name = tensor<string, []>("model_generator_encoder_layer2_3_selayer_conv1_weight_to_fp16"), val = tensor<fp16, [32, 512, 1, 1]>(BLOBFILE(path = tensor<string, []>("@model_path/weights/weight.bin"), offset = tensor<uint64, []>(3954240)))];
            tensor<fp16, [32]> model_generator_encoder_layer2_3_selayer_conv1_bias_to_fp16 = const()[name = tensor<string, []>("model_generator_encoder_layer2_3_selayer_conv1_bias_to_fp16"), val = tensor<fp16, [32]>(BLOBFILE(path = tensor<string, []>("@model_path/weights/weight.bin"), offset = tensor<uint64, []>(3987072)))];
            tensor<fp16, [1, 32, 1, 1]> input_160_cast_fp16 = conv(bias = model_generator_encoder_layer2_3_selayer_conv1_bias_to_fp16, dilations = input_160_dilations_0, groups = input_160_groups_0, pad = input_160_pad_0, pad_type = input_160_pad_type_0, strides = input_160_strides_0, weight = model_generator_encoder_layer2_3_selayer_conv1_weight_to_fp16, x = input_158_cast_fp16)[name = tensor<string, []>("input_160_cast_fp16")];
            tensor<fp16, [1, 32, 1, 1]> var_611_cast_fp16 = relu(x = input_160_cast_fp16)[name = tensor<string, []>("op_611_cast_fp16")];
            tensor<string, []> input_162_pad_type_0 = const()[name = tensor<string, []>("input_162_pad_type_0"), val = tensor<string, []>("valid")];
            tensor<int32, [2]> input_162_strides_0 = const()[name = tensor<string, []>("input_162_strides_0"), val = tensor<int32, [2]>([1, 1])];
            tensor<int32, [4]> input_162_pad_0 = const()[name = tensor<string, []>("input_162_pad_0"), val = tensor<int32, [4]>([0, 0, 0, 0])];
            tensor<int32, [2]> input_162_dilations_0 = const()[name = tensor<string, []>("input_162_dilations_0"), val = tensor<int32, [2]>([1, 1])];
            tensor<int32, []> input_162_groups_0 = const()[name = tensor<string, []>("input_162_groups_0"), val = tensor<int32, []>(1)];
            tensor<fp16, [512, 32, 1, 1]> model_generator_encoder_layer2_3_selayer_conv2_weight_to_fp16 = const()[name = tensor<string, []>("model_generator_encoder_layer2_3_selayer_conv2_weight_to_fp16"), val = tensor<fp16, [512, 32, 1, 1]>(BLOBFILE(path = tensor<string, []>("@model_path/weights/weight.bin"), offset = tensor<uint64, []>(3987200)))];
            tensor<fp16, [512]> model_generator_encoder_layer2_3_selayer_conv2_bias_to_fp16 = const()[name = tensor<string, []>("model_generator_encoder_layer2_3_selayer_conv2_bias_to_fp16"), val = tensor<fp16, [512]>(BLOBFILE(path = tensor<string, []>("@model_path/weights/weight.bin"), offset = tensor<uint64, []>(4020032)))];
            tensor<fp16, [1, 512, 1, 1]> input_162_cast_fp16 = conv(bias = model_generator_encoder_layer2_3_selayer_conv2_bias_to_fp16, dilations = input_162_dilations_0, groups = input_162_groups_0, pad = input_162_pad_0, pad_type = input_162_pad_type_0, strides = input_162_strides_0, weight = model_generator_encoder_layer2_3_selayer_conv2_weight_to_fp16, x = var_611_cast_fp16)[name = tensor<string, []>("input_162_cast_fp16")];
            tensor<fp16, [1, 512, 1, 1]> var_619_cast_fp16 = sigmoid(x = input_162_cast_fp16)[name = tensor<string, []>("op_619_cast_fp16")];
            tensor<fp16, [1, 512, ?, ?]> var_620_cast_fp16 = mul(x = input_156_cast_fp16, y = var_619_cast_fp16)[name = tensor<string, []>("op_620_cast_fp16")];
            tensor<fp16, [1, 512, ?, ?]> input_164_cast_fp16 = add(x = var_620_cast_fp16, y = var_557_cast_fp16)[name = tensor<string, []>("input_164_cast_fp16")];
            tensor<fp16, [1, 512, ?, ?]> var_622_cast_fp16 = relu(x = input_164_cast_fp16)[name = tensor<string, []>("op_622_cast_fp16")];
            tensor<string, []> input_151_pad_type_0 = const()[name = tensor<string, []>("input_151_pad_type_0"), val = tensor<string, []>("valid")];
            tensor<int32, [2]> input_151_strides_0 = const()[name = tensor<string, []>("input_151_strides_0"), val = tensor<int32, [2]>([1, 1])];
            tensor<int32, [4]> input_151_pad_0 = const()[name = tensor<string, []>("input_151_pad_0"), val = tensor<int32, [4]>([0, 0, 0, 0])];
            tensor<int32, [2]> input_151_dilations_0 = const()[name = tensor<string, []>("input_151_dilations_0"), val = tensor<int32, [2]>([1, 1])];
            tensor<int32, []> input_151_groups_0 = const()[name = tensor<string, []>("input_151_groups_0"), val = tensor<int32, []>(1)];
            tensor<fp16, [512, 512, 1, 1]> const_48_to_fp16 = const()[name = tensor<string, []>("const_48_to_fp16"), val = tensor<fp16, [512, 512, 1, 1]>(BLOBFILE(path = tensor<string, []>("@model_path/weights/weight.bin"), offset = tensor<uint64, []>(4021120)))];
            tensor<fp16, [512]> const_49_to_fp16 = const()[name = tensor<string, []>("const_49_to_fp16"), val = tensor<fp16, [512]>(BLOBFILE(path = tensor<string, []>("@model_path/weights/weight.bin"), offset = tensor<uint64, []>(4545472)))];
            tensor<fp16, [1, 512, ?, ?]> input_153_cast_fp16 = conv(bias = const_49_to_fp16, dilations = input_151_dilations_0, groups = input_151_groups_0, pad = input_151_pad_0, pad_type = input_151_pad_type_0, strides = input_151_strides_0, weight = const_48_to_fp16, x = var_622_cast_fp16)[name = tensor<string, []>("input_153_cast_fp16")];
            tensor<fp16, [1, 512, ?, ?]> var_648_cast_fp16 = relu(x = input_153_cast_fp16)[name = tensor<string, []>("op_648_cast_fp16")];
            tensor<string, []> input_155_pad_type_0 = const()[name = tensor<string, []>("input_155_pad_type_0"), val = tensor<string, []>("custom")];
            tensor<int32, [4]> input_155_pad_0 = const()[name = tensor<string, []>("input_155_pad_0"), val = tensor<int32, [4]>([1, 1, 1, 1])];
            tensor<int32, [2]> input_155_strides_0 = const()[name = tensor<string, []>("input_155_strides_0"), val = tensor<int32, [2]>([2, 2])];
            tensor<int32, []> input_155_groups_0 = const()[name = tensor<string, []>("input_155_groups_0"), val = tensor<int32, []>(32)];
            tensor<int32, [2]> input_155_dilations_0 = const()[name = tensor<string, []>("input_155_dilations_0"), val = tensor<int32, [2]>([1, 1])];
            tensor<fp16, [512, 16, 3, 3]> const_50_to_fp16 = const()[name = tensor<string, []>("const_50_to_fp16"), val = tensor<fp16, [512, 16, 3, 3]>(BLOBFILE(path = tensor<string, []>("@model_path/weights/weight.bin"), offset = tensor<uint64, []>(4546560)))];
            tensor<fp16, [512]> const_51_to_fp16 = const()[name = tensor<string, []>("const_51_to_fp16"), val = tensor<fp16, [512]>(BLOBFILE(path = tensor<string, []>("@model_path/weights/weight.bin"), offset = tensor<uint64, []>(4694080)))];
            tensor<fp16, [1, 512, ?, ?]> input_157_cast_fp16 = conv(bias = const_51_to_fp16, dilations = input_155_dilations_0, groups = input_155_groups_0, pad = input_155_pad_0, pad_type = input_155_pad_type_0, strides = input_155_strides_0, weight = const_50_to_fp16, x = var_648_cast_fp16)[name = tensor<string, []>("input_157_cast_fp16")];
            tensor<fp16, [1, 512, ?, ?]> var_660_cast_fp16 = relu(x = input_157_cast_fp16)[name = tensor<string, []>("op_660_cast_fp16")];
            tensor<string, []> input_159_pad_type_0 = const()[name = tensor<string, []>("input_159_pad_type_0"), val = tensor<string, []>("valid")];
            tensor<int32, [2]> input_159_strides_0 = const()[name = tensor<string, []>("input_159_strides_0"), val = tensor<int32, [2]>([1, 1])];
            tensor<int32, [4]> input_159_pad_0 = const()[name = tensor<string, []>("input_159_pad_0"), val = tensor<int32, [4]>([0, 0, 0, 0])];
            tensor<int32, [2]> input_159_dilations_0 = const()[name = tensor<string, []>("input_159_dilations_0"), val = tensor<int32, [2]>([1, 1])];
            tensor<int32, []> input_159_groups_0 = const()[name = tensor<string, []>("input_159_groups_0"), val = tensor<int32, []>(1)];
            tensor<fp16, [1024, 512, 1, 1]> const_52_to_fp16 = const()[name = tensor<string, []>("const_52_to_fp16"), val = tensor<fp16, [1024, 512, 1, 1]>(BLOBFILE(path = tensor<string, []>("@model_path/weights/weight.bin"), offset = tensor<uint64, []>(4695168)))];
            tensor<fp16, [1024]> const_53_to_fp16 = const()[name = tensor<string, []>("const_53_to_fp16"), val = tensor<fp16, [1024]>(BLOBFILE(path = tensor<string, []>("@model_path/weights/weight.bin"), offset = tensor<uint64, []>(5743808)))];
            tensor<fp16, [1, 1024, ?, ?]> input_161_cast_fp16 = conv(bias = const_53_to_fp16, dilations = input_159_dilations_0, groups = input_159_groups_0, pad = input_159_pad_0, pad_type = input_159_pad_type_0, strides = input_159_strides_0, weight = const_52_to_fp16, x = var_660_cast_fp16)[name = tensor<string, []>("input_161_cast_fp16")];
            tensor<int32, [2]> input_163_axes_0 = const()[name = tensor<string, []>("input_163_axes_0"), val = tensor<int32, [2]>([-2, -1])];
            tensor<bool, []> input_163_keep_dims_0 = const()[name = tensor<string, []>("input_163_keep_dims_0"), val = tensor<bool, []>(true)];
            tensor<fp16, [1, 1024, 1, 1]> input_163_cast_fp16 = reduce_mean(axes = input_163_axes_0, keep_dims = input_163_keep_dims_0, x = input_161_cast_fp16)[name = tensor<string, []>("input_163_cast_fp16")];
            tensor<string, []> input_165_pad_type_0 = const()[name = tensor<string, []>("input_165_pad_type_0"), val = tensor<string, []>("valid")];
            tensor<int32, [2]> input_165_strides_0 = const()[name = tensor<string, []>("input_165_strides_0"), val = tensor<int32, [2]>([1, 1])];
            tensor<int32, [4]> input_165_pad_0 = const()[name = tensor<string, []>("input_165_pad_0"), val = tensor<int32, [4]>([0, 0, 0, 0])];
            tensor<int32, [2]> input_165_dilations_0 = const()[name = tensor<string, []>("input_165_dilations_0"), val = tensor<int32, [2]>([1, 1])];
            tensor<int32, []> input_165_groups_0 = const()[name = tensor<string, []>("input_165_groups_0"), val = tensor<int32, []>(1)];
            tensor<fp16, [64, 1024, 1, 1]> model_generator_encoder_layer3_0_selayer_conv1_weight_to_fp16 = const()[name = tensor<string, []>("model_generator_encoder_layer3_0_selayer_conv1_weight_to_fp16"), val = tensor<fp16, [64, 1024, 1, 1]>(BLOBFILE(path = tensor<string, []>("@model_path/weights/weight.bin"), offset = tensor<uint64, []>(5745920)))];
            tensor<fp16, [64]> model_generator_encoder_layer3_0_selayer_conv1_bias_to_fp16 = const()[name = tensor<string, []>("model_generator_encoder_layer3_0_selayer_conv1_bias_to_fp16"), val = tensor<fp16, [64]>(BLOBFILE(path = tensor<string, []>("@model_path/weights/weight.bin"), offset = tensor<uint64, []>(5877056)))];
            tensor<fp16, [1, 64, 1, 1]> input_165_cast_fp16 = conv(bias = model_generator_encoder_layer3_0_selayer_conv1_bias_to_fp16, dilations = input_165_dilations_0, groups = input_165_groups_0, pad = input_165_pad_0, pad_type = input_165_pad_type_0, strides = input_165_strides_0, weight = model_generator_encoder_layer3_0_selayer_conv1_weight_to_fp16, x = input_163_cast_fp16)[name = tensor<string, []>("input_165_cast_fp16")];
            tensor<fp16, [1, 64, 1, 1]> var_683_cast_fp16 = relu(x = input_165_cast_fp16)[name = tensor<string, []>("op_683_cast_fp16")];
            tensor<string, []> input_20_pad_type_0 = const()[name = tensor<string, []>("input_20_pad_type_0"), val = tensor<string, []>("valid")];
            tensor<int32, [2]> input_20_strides_0 = const()[name = tensor<string, []>("input_20_strides_0"), val = tensor<int32, [2]>([1, 1])];
            tensor<int32, [4]> input_20_pad_0 = const()[name = tensor<string, []>("input_20_pad_0"), val = tensor<int32, [4]>([0, 0, 0, 0])];
            tensor<int32, [2]> input_20_dilations_0 = const()[name = tensor<string, []>("input_20_dilations_0"), val = tensor<int32, [2]>([1, 1])];
            tensor<int32, []> input_20_groups_0 = const()[name = tensor<string, []>("input_20_groups_0"), val = tensor<int32, []>(1)];
            tensor<fp16, [1024, 64, 1, 1]> model_generator_encoder_layer3_0_selayer_conv2_weight_to_fp16 = const()[name = tensor<string, []>("model_generator_encoder_layer3_0_selayer_conv2_weight_to_fp16"), val = tensor<fp16, [1024, 64, 1, 1]>(BLOBFILE(path = tensor<string, []>("@model_path/weights/weight.bin"), offset = tensor<uint64, []>(5877248)))];
            tensor<fp16, [1024]> model_generator_encoder_layer3_0_selayer_conv2_bias_to_fp16 = const()[name = tensor<string, []>("model_generator_encoder_layer3_0_selayer_conv2_bias_to_fp16"), val = tensor<fp16, [1024]>(BLOBFILE(path = tensor<string, []>("@model_path/weights/weight.bin"), offset = tensor<uint64, []>(6008384)))];
            tensor<fp16, [1, 1024, 1, 1]> input_20_cast_fp16 = conv(bias = model_generator_encoder_layer3_0_selayer_conv2_bias_to_fp16, dilations = input_20_dilations_0, groups = input_20_groups_0, pad = input_20_pad_0, pad_type = input_20_pad_type_0, strides = input_20_strides_0, weight = model_generator_encoder_layer3_0_selayer_conv2_weight_to_fp16, x = var_683_cast_fp16)[name = tensor<string, []>("input_20_cast_fp16")];
            tensor<fp16, [1, 1024, 1, 1]> var_691_cast_fp16 = sigmoid(x = input_20_cast_fp16)[name = tensor<string, []>("op_691_cast_fp16")];
            tensor<fp16, [1, 1024, ?, ?]> var_692_cast_fp16 = mul(x = input_161_cast_fp16, y = var_691_cast_fp16)[name = tensor<string, []>("op_692_cast_fp16")];
            tensor<string, []> input_167_pad_type_0 = const()[name = tensor<string, []>("input_167_pad_type_0"), val = tensor<string, []>("valid")];
            tensor<int32, [2]> input_167_strides_0 = const()[name = tensor<string, []>("input_167_strides_0"), val = tensor<int32, [2]>([2, 2])];
            tensor<int32, [4]> input_167_pad_0 = const()[name = tensor<string, []>("input_167_pad_0"), val = tensor<int32, [4]>([0, 0, 0, 0])];
            tensor<int32, [2]> input_167_dilations_0 = const()[name = tensor<string, []>("input_167_dilations_0"), val = tensor<int32, [2]>([1, 1])];
            tensor<int32, []> input_167_groups_0 = const()[name = tensor<string, []>("input_167_groups_0"), val = tensor<int32, []>(1)];
            tensor<fp16, [1024, 512, 1, 1]> const_54_to_fp16 = const()[name = tensor<string, []>("const_54_to_fp16"), val = tensor<fp16, [1024, 512, 1, 1]>(BLOBFILE(path = tensor<string, []>("@model_path/weights/weight.bin"), offset = tensor<uint64, []>(6010496)))];
            tensor<fp16, [1024]> const_55_to_fp16 = const()[name = tensor<string, []>("const_55_to_fp16"), val = tensor<fp16, [1024]>(BLOBFILE(path = tensor<string, []>("@model_path/weights/weight.bin"), offset = tensor<uint64, []>(7059136)))];
            tensor<fp16, [1, 1024, ?, ?]> residual_1_cast_fp16 = conv(bias = const_55_to_fp16, dilations = input_167_dilations_0, groups = input_167_groups_0, pad = input_167_pad_0, pad_type = input_167_pad_type_0, strides = input_167_strides_0, weight = const_54_to_fp16, x = var_622_cast_fp16)[name = tensor<string, []>("residual_1_cast_fp16")];
            tensor<fp16, [1, 1024, ?, ?]> input_169_cast_fp16 = add(x = var_692_cast_fp16, y = residual_1_cast_fp16)[name = tensor<string, []>("input_169_cast_fp16")];
            tensor<fp16, [1, 1024, ?, ?]> var_707_cast_fp16 = relu(x = input_169_cast_fp16)[name = tensor<string, []>("op_707_cast_fp16")];
            tensor<string, []> input_171_pad_type_0 = const()[name = tensor<string, []>("input_171_pad_type_0"), val = tensor<string, []>("valid")];
            tensor<int32, [2]> input_171_strides_0 = const()[name = tensor<string, []>("input_171_strides_0"), val = tensor<int32, [2]>([1, 1])];
            tensor<int32, [4]> input_171_pad_0 = const()[name = tensor<string, []>("input_171_pad_0"), val = tensor<int32, [4]>([0, 0, 0, 0])];
            tensor<int32, [2]> input_171_dilations_0 = const()[name = tensor<string, []>("input_171_dilations_0"), val = tensor<int32, [2]>([1, 1])];
            tensor<int32, []> input_171_groups_0 = const()[name = tensor<string, []>("input_171_groups_0"), val = tensor<int32, []>(1)];
            tensor<fp16, [512, 1024, 1, 1]> const_56_to_fp16 = const()[name = tensor<string, []>("const_56_to_fp16"), val = tensor<fp16, [512, 1024, 1, 1]>(BLOBFILE(path = tensor<string, []>("@model_path/weights/weight.bin"), offset = tensor<uint64, []>(7061248)))];
            tensor<fp16, [512]> const_57_to_fp16 = const()[name = tensor<string, []>("const_57_to_fp16"), val = tensor<fp16, [512]>(BLOBFILE(path = tensor<string, []>("@model_path/weights/weight.bin"), offset = tensor<uint64, []>(8109888)))];
            tensor<fp16, [1, 512, ?, ?]> input_173_cast_fp16 = conv(bias = const_57_to_fp16, dilations = input_171_dilations_0, groups = input_171_groups_0, pad = input_171_pad_0, pad_type = input_171_pad_type_0, strides = input_171_strides_0, weight = const_56_to_fp16, x = var_707_cast_fp16)[name = tensor<string, []>("input_173_cast_fp16")];
            tensor<fp16, [1, 512, ?, ?]> var_726_cast_fp16 = relu(x = input_173_cast_fp16)[name = tensor<string, []>("op_726_cast_fp16")];
            tensor<string, []> input_175_pad_type_0 = const()[name = tensor<string, []>("input_175_pad_type_0"), val = tensor<string, []>("custom")];
            tensor<int32, [4]> input_175_pad_0 = const()[name = tensor<string, []>("input_175_pad_0"), val = tensor<int32, [4]>([1, 1, 1, 1])];
            tensor<int32, []> input_175_groups_0 = const()[name = tensor<string, []>("input_175_groups_0"), val = tensor<int32, []>(32)];
            tensor<int32, [2]> input_175_strides_0 = const()[name = tensor<string, []>("input_175_strides_0"), val = tensor<int32, [2]>([1, 1])];
            tensor<int32, [2]> input_175_dilations_0 = const()[name = tensor<string, []>("input_175_dilations_0"), val = tensor<int32, [2]>([1, 1])];
            tensor<fp16, [512, 16, 3, 3]> const_58_to_fp16 = const()[name = tensor<string, []>("const_58_to_fp16"), val = tensor<fp16, [512, 16, 3, 3]>(BLOBFILE(path = tensor<string, []>("@model_path/weights/weight.bin"), offset = tensor<uint64, []>(8110976)))];
            tensor<fp16, [512]> const_59_to_fp16 = const()[name = tensor<string, []>("const_59_to_fp16"), val = tensor<fp16, [512]>(BLOBFILE(path = tensor<string, []>("@model_path/weights/weight.bin"), offset = tensor<uint64, []>(8258496)))];
            tensor<fp16, [1, 512, ?, ?]> input_177_cast_fp16 = conv(bias = const_59_to_fp16, dilations = input_175_dilations_0, groups = input_175_groups_0, pad = input_175_pad_0, pad_type = input_175_pad_type_0, strides = input_175_strides_0, weight = const_58_to_fp16, x = var_726_cast_fp16)[name = tensor<string, []>("input_177_cast_fp16")];
            tensor<fp16, [1, 512, ?, ?]> var_738_cast_fp16 = relu(x = input_177_cast_fp16)[name = tensor<string, []>("op_738_cast_fp16")];
            tensor<string, []> input_179_pad_type_0 = const()[name = tensor<string, []>("input_179_pad_type_0"), val = tensor<string, []>("valid")];
            tensor<int32, [2]> input_179_strides_0 = const()[name = tensor<string, []>("input_179_strides_0"), val = tensor<int32, [2]>([1, 1])];
            tensor<int32, [4]> input_179_pad_0 = const()[name = tensor<string, []>("input_179_pad_0"), val = tensor<int32, [4]>([0, 0, 0, 0])];
            tensor<int32, [2]> input_179_dilations_0 = const()[name = tensor<string, []>("input_179_dilations_0"), val = tensor<int32, [2]>([1, 1])];
            tensor<int32, []> input_179_groups_0 = const()[name = tensor<string, []>("input_179_groups_0"), val = tensor<int32, []>(1)];
            tensor<fp16, [1024, 512, 1, 1]> const_60_to_fp16 = const()[name = tensor<string, []>("const_60_to_fp16"), val = tensor<fp16, [1024, 512, 1, 1]>(BLOBFILE(path = tensor<string, []>("@model_path/weights/weight.bin"), offset = tensor<uint64, []>(8259584)))];
            tensor<fp16, [1024]> const_61_to_fp16 = const()[name = tensor<string, []>("const_61_to_fp16"), val = tensor<fp16, [1024]>(BLOBFILE(path = tensor<string, []>("@model_path/weights/weight.bin"), offset = tensor<uint64, []>(9308224)))];
            tensor<fp16, [1, 1024, ?, ?]> input_181_cast_fp16 = conv(bias = const_61_to_fp16, dilations = input_179_dilations_0, groups = input_179_groups_0, pad = input_179_pad_0, pad_type = input_179_pad_type_0, strides = input_179_strides_0, weight = const_60_to_fp16, x = var_738_cast_fp16)[name = tensor<string, []>("input_181_cast_fp16")];
            tensor<int32, [2]> input_183_axes_0 = const()[name = tensor<string, []>("input_183_axes_0"), val = tensor<int32, [2]>([-2, -1])];
            tensor<bool, []> input_183_keep_dims_0 = const()[name = tensor<string, []>("input_183_keep_dims_0"), val = tensor<bool, []>(true)];
            tensor<fp16, [1, 1024, 1, 1]> input_183_cast_fp16 = reduce_mean(axes = input_183_axes_0, keep_dims = input_183_keep_dims_0, x = input_181_cast_fp16)[name = tensor<string, []>("input_183_cast_fp16")];
            tensor<string, []> input_185_pad_type_0 = const()[name = tensor<string, []>("input_185_pad_type_0"), val = tensor<string, []>("valid")];
            tensor<int32, [2]> input_185_strides_0 = const()[name = tensor<string, []>("input_185_strides_0"), val = tensor<int32, [2]>([1, 1])];
            tensor<int32, [4]> input_185_pad_0 = const()[name = tensor<string, []>("input_185_pad_0"), val = tensor<int32, [4]>([0, 0, 0, 0])];
            tensor<int32, [2]> input_185_dilations_0 = const()[name = tensor<string, []>("input_185_dilations_0"), val = tensor<int32, [2]>([1, 1])];
            tensor<int32, []> input_185_groups_0 = const()[name = tensor<string, []>("input_185_groups_0"), val = tensor<int32, []>(1)];
            tensor<fp16, [64, 1024, 1, 1]> model_generator_encoder_layer3_1_selayer_conv1_weight_to_fp16 = const()[name = tensor<string, []>("model_generator_encoder_layer3_1_selayer_conv1_weight_to_fp16"), val = tensor<fp16, [64, 1024, 1, 1]>(BLOBFILE(path = tensor<string, []>("@model_path/weights/weight.bin"), offset = tensor<uint64, []>(9310336)))];
            tensor<fp16, [64]> model_generator_encoder_layer3_1_selayer_conv1_bias_to_fp16 = const()[name = tensor<string, []>("model_generator_encoder_layer3_1_selayer_conv1_bias_to_fp16"), val = tensor<fp16, [64]>(BLOBFILE(path = tensor<string, []>("@model_path/weights/weight.bin"), offset = tensor<uint64, []>(9441472)))];
            tensor<fp16, [1, 64, 1, 1]> input_185_cast_fp16 = conv(bias = model_generator_encoder_layer3_1_selayer_conv1_bias_to_fp16, dilations = input_185_dilations_0, groups = input_185_groups_0, pad = input_185_pad_0, pad_type = input_185_pad_type_0, strides = input_185_strides_0, weight = model_generator_encoder_layer3_1_selayer_conv1_weight_to_fp16, x = input_183_cast_fp16)[name = tensor<string, []>("input_185_cast_fp16")];
            tensor<fp16, [1, 64, 1, 1]> var_761_cast_fp16 = relu(x = input_185_cast_fp16)[name = tensor<string, []>("op_761_cast_fp16")];
            tensor<string, []> input_187_pad_type_0 = const()[name = tensor<string, []>("input_187_pad_type_0"), val = tensor<string, []>("valid")];
            tensor<int32, [2]> input_187_strides_0 = const()[name = tensor<string, []>("input_187_strides_0"), val = tensor<int32, [2]>([1, 1])];
            tensor<int32, [4]> input_187_pad_0 = const()[name = tensor<string, []>("input_187_pad_0"), val = tensor<int32, [4]>([0, 0, 0, 0])];
            tensor<int32, [2]> input_187_dilations_0 = const()[name = tensor<string, []>("input_187_dilations_0"), val = tensor<int32, [2]>([1, 1])];
            tensor<int32, []> input_187_groups_0 = const()[name = tensor<string, []>("input_187_groups_0"), val = tensor<int32, []>(1)];
            tensor<fp16, [1024, 64, 1, 1]> model_generator_encoder_layer3_1_selayer_conv2_weight_to_fp16 = const()[name = tensor<string, []>("model_generator_encoder_layer3_1_selayer_conv2_weight_to_fp16"), val = tensor<fp16, [1024, 64, 1, 1]>(BLOBFILE(path = tensor<string, []>("@model_path/weights/weight.bin"), offset = tensor<uint64, []>(9441664)))];
            tensor<fp16, [1024]> model_generator_encoder_layer3_1_selayer_conv2_bias_to_fp16 = const()[name = tensor<string, []>("model_generator_encoder_layer3_1_selayer_conv2_bias_to_fp16"), val = tensor<fp16, [1024]>(BLOBFILE(path = tensor<string, []>("@model_path/weights/weight.bin"), offset = tensor<uint64, []>(9572800)))];
            tensor<fp16, [1, 1024, 1, 1]> input_187_cast_fp16 = conv(bias = model_generator_encoder_layer3_1_selayer_conv2_bias_to_fp16, dilations = input_187_dilations_0, groups = input_187_groups_0, pad = input_187_pad_0, pad_type = input_187_pad_type_0, strides = input_187_strides_0, weight = model_generator_encoder_layer3_1_selayer_conv2_weight_to_fp16, x = var_761_cast_fp16)[name = tensor<string, []>("input_187_cast_fp16")];
            tensor<fp16, [1, 1024, 1, 1]> var_769_cast_fp16 = sigmoid(x = input_187_cast_fp16)[name = tensor<string, []>("op_769_cast_fp16")];
            tensor<fp16, [1, 1024, ?, ?]> var_770_cast_fp16 = mul(x = input_181_cast_fp16, y = var_769_cast_fp16)[name = tensor<string, []>("op_770_cast_fp16")];
            tensor<fp16, [1, 1024, ?, ?]> input_189_cast_fp16 = add(x = var_770_cast_fp16, y = var_707_cast_fp16)[name = tensor<string, []>("input_189_cast_fp16")];
            tensor<fp16, [1, 1024, ?, ?]> var_772_cast_fp16 = relu(x = input_189_cast_fp16)[name = tensor<string, []>("op_772_cast_fp16")];
            tensor<string, []> input_191_pad_type_0 = const()[name = tensor<string, []>("input_191_pad_type_0"), val = tensor<string, []>("valid")];
            tensor<int32, [2]> input_191_strides_0 = const()[name = tensor<string, []>("input_191_strides_0"), val = tensor<int32, [2]>([1, 1])];
            tensor<int32, [4]> input_191_pad_0 = const()[name = tensor<string, []>("input_191_pad_0"), val = tensor<int32, [4]>([0, 0, 0, 0])];
            tensor<int32, [2]> input_191_dilations_0 = const()[name = tensor<string, []>("input_191_dilations_0"), val = tensor<int32, [2]>([1, 1])];
            tensor<int32, []> input_191_groups_0 = const()[name = tensor<string, []>("input_191_groups_0"), val = tensor<int32, []>(1)];
            tensor<fp16, [512, 1024, 1, 1]> const_62_to_fp16 = const()[name = tensor<string, []>("const_62_to_fp16"), val = tensor<fp16, [512, 1024, 1, 1]>(BLOBFILE(path = tensor<string, []>("@model_path/weights/weight.bin"), offset = tensor<uint64, []>(9574912)))];
            tensor<fp16, [512]> const_63_to_fp16 = const()[name = tensor<string, []>("const_63_to_fp16"), val = tensor<fp16, [512]>(BLOBFILE(path = tensor<string, []>("@model_path/weights/weight.bin"), offset = tensor<uint64, []>(10623552)))];
            tensor<fp16, [1, 512, ?, ?]> input_193_cast_fp16 = conv(bias = const_63_to_fp16, dilations = input_191_dilations_0, groups = input_191_groups_0, pad = input_191_pad_0, pad_type = input_191_pad_type_0, strides = input_191_strides_0, weight = const_62_to_fp16, x = var_772_cast_fp16)[name = tensor<string, []>("input_193_cast_fp16")];
            tensor<fp16, [1, 512, ?, ?]> var_791_cast_fp16 = relu(x = input_193_cast_fp16)[name = tensor<string, []>("op_791_cast_fp16")];
            tensor<string, []> input_195_pad_type_0 = const()[name = tensor<string, []>("input_195_pad_type_0"), val = tensor<string, []>("custom")];
            tensor<int32, [4]> input_195_pad_0 = const()[name = tensor<string, []>("input_195_pad_0"), val = tensor<int32, [4]>([1, 1, 1, 1])];
            tensor<int32, []> input_195_groups_0 = const()[name = tensor<string, []>("input_195_groups_0"), val = tensor<int32, []>(32)];
            tensor<int32, [2]> input_195_strides_0 = const()[name = tensor<string, []>("input_195_strides_0"), val = tensor<int32, [2]>([1, 1])];
            tensor<int32, [2]> input_195_dilations_0 = const()[name = tensor<string, []>("input_195_dilations_0"), val = tensor<int32, [2]>([1, 1])];
            tensor<fp16, [512, 16, 3, 3]> const_64_to_fp16 = const()[name = tensor<string, []>("const_64_to_fp16"), val = tensor<fp16, [512, 16, 3, 3]>(BLOBFILE(path = tensor<string, []>("@model_path/weights/weight.bin"), offset = tensor<uint64, []>(10624640)))];
            tensor<fp16, [512]> const_65_to_fp16 = const()[name = tensor<string, []>("const_65_to_fp16"), val = tensor<fp16, [512]>(BLOBFILE(path = tensor<string, []>("@model_path/weights/weight.bin"), offset = tensor<uint64, []>(10772160)))];
            tensor<fp16, [1, 512, ?, ?]> input_197_cast_fp16 = conv(bias = const_65_to_fp16, dilations = input_195_dilations_0, groups = input_195_groups_0, pad = input_195_pad_0, pad_type = input_195_pad_type_0, strides = input_195_strides_0, weight = const_64_to_fp16, x = var_791_cast_fp16)[name = tensor<string, []>("input_197_cast_fp16")];
            tensor<fp16, [1, 512, ?, ?]> var_803_cast_fp16 = relu(x = input_197_cast_fp16)[name = tensor<string, []>("op_803_cast_fp16")];
            tensor<string, []> input_199_pad_type_0 = const()[name = tensor<string, []>("input_199_pad_type_0"), val = tensor<string, []>("valid")];
            tensor<int32, [2]> input_199_strides_0 = const()[name = tensor<string, []>("input_199_strides_0"), val = tensor<int32, [2]>([1, 1])];
            tensor<int32, [4]> input_199_pad_0 = const()[name = tensor<string, []>("input_199_pad_0"), val = tensor<int32, [4]>([0, 0, 0, 0])];
            tensor<int32, [2]> input_199_dilations_0 = const()[name = tensor<string, []>("input_199_dilations_0"), val = tensor<int32, [2]>([1, 1])];
            tensor<int32, []> input_199_groups_0 = const()[name = tensor<string, []>("input_199_groups_0"), val = tensor<int32, []>(1)];
            tensor<fp16, [1024, 512, 1, 1]> const_66_to_fp16 = const()[name = tensor<string, []>("const_66_to_fp16"), val = tensor<fp16, [1024, 512, 1, 1]>(BLOBFILE(path = tensor<string, []>("@model_path/weights/weight.bin"), offset = tensor<uint64, []>(10773248)))];
            tensor<fp16, [1024]> const_67_to_fp16 = const()[name = tensor<string, []>("const_67_to_fp16"), val = tensor<fp16, [1024]>(BLOBFILE(path = tensor<string, []>("@model_path/weights/weight.bin"), offset = tensor<uint64, []>(11821888)))];
            tensor<fp16, [1, 1024, ?, ?]> input_201_cast_fp16 = conv(bias = const_67_to_fp16, dilations = input_199_dilations_0, groups = input_199_groups_0, pad = input_199_pad_0, pad_type = input_199_pad_type_0, strides = input_199_strides_0, weight = const_66_to_fp16, x = var_803_cast_fp16)[name = tensor<string, []>("input_201_cast_fp16")];
            tensor<int32, [2]> input_203_axes_0 = const()[name = tensor<string, []>("input_203_axes_0"), val = tensor<int32, [2]>([-2, -1])];
            tensor<bool, []> input_203_keep_dims_0 = const()[name = tensor<string, []>("input_203_keep_dims_0"), val = tensor<bool, []>(true)];
            tensor<fp16, [1, 1024, 1, 1]> input_203_cast_fp16 = reduce_mean(axes = input_203_axes_0, keep_dims = input_203_keep_dims_0, x = input_201_cast_fp16)[name = tensor<string, []>("input_203_cast_fp16")];
            tensor<string, []> input_205_pad_type_0 = const()[name = tensor<string, []>("input_205_pad_type_0"), val = tensor<string, []>("valid")];
            tensor<int32, [2]> input_205_strides_0 = const()[name = tensor<string, []>("input_205_strides_0"), val = tensor<int32, [2]>([1, 1])];
            tensor<int32, [4]> input_205_pad_0 = const()[name = tensor<string, []>("input_205_pad_0"), val = tensor<int32, [4]>([0, 0, 0, 0])];
            tensor<int32, [2]> input_205_dilations_0 = const()[name = tensor<string, []>("input_205_dilations_0"), val = tensor<int32, [2]>([1, 1])];
            tensor<int32, []> input_205_groups_0 = const()[name = tensor<string, []>("input_205_groups_0"), val = tensor<int32, []>(1)];
            tensor<fp16, [64, 1024, 1, 1]> model_generator_encoder_layer3_2_selayer_conv1_weight_to_fp16 = const()[name = tensor<string, []>("model_generator_encoder_layer3_2_selayer_conv1_weight_to_fp16"), val = tensor<fp16, [64, 1024, 1, 1]>(BLOBFILE(path = tensor<string, []>("@model_path/weights/weight.bin"), offset = tensor<uint64, []>(11824000)))];
            tensor<fp16, [64]> model_generator_encoder_layer3_2_selayer_conv1_bias_to_fp16 = const()[name = tensor<string, []>("model_generator_encoder_layer3_2_selayer_conv1_bias_to_fp16"), val = tensor<fp16, [64]>(BLOBFILE(path = tensor<string, []>("@model_path/weights/weight.bin"), offset = tensor<uint64, []>(11955136)))];
            tensor<fp16, [1, 64, 1, 1]> input_205_cast_fp16 = conv(bias = model_generator_encoder_layer3_2_selayer_conv1_bias_to_fp16, dilations = input_205_dilations_0, groups = input_205_groups_0, pad = input_205_pad_0, pad_type = input_205_pad_type_0, strides = input_205_strides_0, weight = model_generator_encoder_layer3_2_selayer_conv1_weight_to_fp16, x = input_203_cast_fp16)[name = tensor<string, []>("input_205_cast_fp16")];
            tensor<fp16, [1, 64, 1, 1]> var_826_cast_fp16 = relu(x = input_205_cast_fp16)[name = tensor<string, []>("op_826_cast_fp16")];
            tensor<string, []> input_207_pad_type_0 = const()[name = tensor<string, []>("input_207_pad_type_0"), val = tensor<string, []>("valid")];
            tensor<int32, [2]> input_207_strides_0 = const()[name = tensor<string, []>("input_207_strides_0"), val = tensor<int32, [2]>([1, 1])];
            tensor<int32, [4]> input_207_pad_0 = const()[name = tensor<string, []>("input_207_pad_0"), val = tensor<int32, [4]>([0, 0, 0, 0])];
            tensor<int32, [2]> input_207_dilations_0 = const()[name = tensor<string, []>("input_207_dilations_0"), val = tensor<int32, [2]>([1, 1])];
            tensor<int32, []> input_207_groups_0 = const()[name = tensor<string, []>("input_207_groups_0"), val = tensor<int32, []>(1)];
            tensor<fp16, [1024, 64, 1, 1]> model_generator_encoder_layer3_2_selayer_conv2_weight_to_fp16 = const()[name = tensor<string, []>("model_generator_encoder_layer3_2_selayer_conv2_weight_to_fp16"), val = tensor<fp16, [1024, 64, 1, 1]>(BLOBFILE(path = tensor<string, []>("@model_path/weights/weight.bin"), offset = tensor<uint64, []>(11955328)))];
            tensor<fp16, [1024]> model_generator_encoder_layer3_2_selayer_conv2_bias_to_fp16 = const()[name = tensor<string, []>("model_generator_encoder_layer3_2_selayer_conv2_bias_to_fp16"), val = tensor<fp16, [1024]>(BLOBFILE(path = tensor<string, []>("@model_path/weights/weight.bin"), offset = tensor<uint64, []>(12086464)))];
            tensor<fp16, [1, 1024, 1, 1]> input_207_cast_fp16 = conv(bias = model_generator_encoder_layer3_2_selayer_conv2_bias_to_fp16, dilations = input_207_dilations_0, groups = input_207_groups_0, pad = input_207_pad_0, pad_type = input_207_pad_type_0, strides = input_207_strides_0, weight = model_generator_encoder_layer3_2_selayer_conv2_weight_to_fp16, x = var_826_cast_fp16)[name = tensor<string, []>("input_207_cast_fp16")];
            tensor<fp16, [1, 1024, 1, 1]> var_834_cast_fp16 = sigmoid(x = input_207_cast_fp16)[name = tensor<string, []>("op_834_cast_fp16")];
            tensor<fp16, [1, 1024, ?, ?]> var_835_cast_fp16 = mul(x = input_201_cast_fp16, y = var_834_cast_fp16)[name = tensor<string, []>("op_835_cast_fp16")];
            tensor<fp16, [1, 1024, ?, ?]> input_209_cast_fp16 = add(x = var_835_cast_fp16, y = var_772_cast_fp16)[name = tensor<string, []>("input_209_cast_fp16")];
            tensor<fp16, [1, 1024, ?, ?]> var_837_cast_fp16 = relu(x = input_209_cast_fp16)[name = tensor<string, []>("op_837_cast_fp16")];
            tensor<string, []> input_211_pad_type_0 = const()[name = tensor<string, []>("input_211_pad_type_0"), val = tensor<string, []>("valid")];
            tensor<int32, [2]> input_211_strides_0 = const()[name = tensor<string, []>("input_211_strides_0"), val = tensor<int32, [2]>([1, 1])];
            tensor<int32, [4]> input_211_pad_0 = const()[name = tensor<string, []>("input_211_pad_0"), val = tensor<int32, [4]>([0, 0, 0, 0])];
            tensor<int32, [2]> input_211_dilations_0 = const()[name = tensor<string, []>("input_211_dilations_0"), val = tensor<int32, [2]>([1, 1])];
            tensor<int32, []> input_211_groups_0 = const()[name = tensor<string, []>("input_211_groups_0"), val = tensor<int32, []>(1)];
            tensor<fp16, [512, 1024, 1, 1]> const_68_to_fp16 = const()[name = tensor<string, []>("const_68_to_fp16"), val = tensor<fp16, [512, 1024, 1, 1]>(BLOBFILE(path = tensor<string, []>("@model_path/weights/weight.bin"), offset = tensor<uint64, []>(12088576)))];
            tensor<fp16, [512]> const_69_to_fp16 = const()[name = tensor<string, []>("const_69_to_fp16"), val = tensor<fp16, [512]>(BLOBFILE(path = tensor<string, []>("@model_path/weights/weight.bin"), offset = tensor<uint64, []>(13137216)))];
            tensor<fp16, [1, 512, ?, ?]> input_213_cast_fp16 = conv(bias = const_69_to_fp16, dilations = input_211_dilations_0, groups = input_211_groups_0, pad = input_211_pad_0, pad_type = input_211_pad_type_0, strides = input_211_strides_0, weight = const_68_to_fp16, x = var_837_cast_fp16)[name = tensor<string, []>("input_213_cast_fp16")];
            tensor<fp16, [1, 512, ?, ?]> var_856_cast_fp16 = relu(x = input_213_cast_fp16)[name = tensor<string, []>("op_856_cast_fp16")];
            tensor<string, []> input_215_pad_type_0 = const()[name = tensor<string, []>("input_215_pad_type_0"), val = tensor<string, []>("custom")];
            tensor<int32, [4]> input_215_pad_0 = const()[name = tensor<string, []>("input_215_pad_0"), val = tensor<int32, [4]>([1, 1, 1, 1])];
            tensor<int32, []> input_215_groups_0 = const()[name = tensor<string, []>("input_215_groups_0"), val = tensor<int32, []>(32)];
            tensor<int32, [2]> input_215_strides_0 = const()[name = tensor<string, []>("input_215_strides_0"), val = tensor<int32, [2]>([1, 1])];
            tensor<int32, [2]> input_215_dilations_0 = const()[name = tensor<string, []>("input_215_dilations_0"), val = tensor<int32, [2]>([1, 1])];
            tensor<fp16, [512, 16, 3, 3]> const_70_to_fp16 = const()[name = tensor<string, []>("const_70_to_fp16"), val = tensor<fp16, [512, 16, 3, 3]>(BLOBFILE(path = tensor<string, []>("@model_path/weights/weight.bin"), offset = tensor<uint64, []>(13138304)))];
            tensor<fp16, [512]> const_71_to_fp16 = const()[name = tensor<string, []>("const_71_to_fp16"), val = tensor<fp16, [512]>(BLOBFILE(path = tensor<string, []>("@model_path/weights/weight.bin"), offset = tensor<uint64, []>(13285824)))];
            tensor<fp16, [1, 512, ?, ?]> input_217_cast_fp16 = conv(bias = const_71_to_fp16, dilations = input_215_dilations_0, groups = input_215_groups_0, pad = input_215_pad_0, pad_type = input_215_pad_type_0, strides = input_215_strides_0, weight = const_70_to_fp16, x = var_856_cast_fp16)[name = tensor<string, []>("input_217_cast_fp16")];
            tensor<fp16, [1, 512, ?, ?]> var_868_cast_fp16 = relu(x = input_217_cast_fp16)[name = tensor<string, []>("op_868_cast_fp16")];
            tensor<string, []> input_219_pad_type_0 = const()[name = tensor<string, []>("input_219_pad_type_0"), val = tensor<string, []>("valid")];
            tensor<int32, [2]> input_219_strides_0 = const()[name = tensor<string, []>("input_219_strides_0"), val = tensor<int32, [2]>([1, 1])];
            tensor<int32, [4]> input_219_pad_0 = const()[name = tensor<string, []>("input_219_pad_0"), val = tensor<int32, [4]>([0, 0, 0, 0])];
            tensor<int32, [2]> input_219_dilations_0 = const()[name = tensor<string, []>("input_219_dilations_0"), val = tensor<int32, [2]>([1, 1])];
            tensor<int32, []> input_219_groups_0 = const()[name = tensor<string, []>("input_219_groups_0"), val = tensor<int32, []>(1)];
            tensor<fp16, [1024, 512, 1, 1]> const_72_to_fp16 = const()[name = tensor<string, []>("const_72_to_fp16"), val = tensor<fp16, [1024, 512, 1, 1]>(BLOBFILE(path = tensor<string, []>("@model_path/weights/weight.bin"), offset = tensor<uint64, []>(13286912)))];
            tensor<fp16, [1024]> const_73_to_fp16 = const()[name = tensor<string, []>("const_73_to_fp16"), val = tensor<fp16, [1024]>(BLOBFILE(path = tensor<string, []>("@model_path/weights/weight.bin"), offset = tensor<uint64, []>(14335552)))];
            tensor<fp16, [1, 1024, ?, ?]> input_221_cast_fp16 = conv(bias = const_73_to_fp16, dilations = input_219_dilations_0, groups = input_219_groups_0, pad = input_219_pad_0, pad_type = input_219_pad_type_0, strides = input_219_strides_0, weight = const_72_to_fp16, x = var_868_cast_fp16)[name = tensor<string, []>("input_221_cast_fp16")];
            tensor<int32, [2]> input_223_axes_0 = const()[name = tensor<string, []>("input_223_axes_0"), val = tensor<int32, [2]>([-2, -1])];
            tensor<bool, []> input_223_keep_dims_0 = const()[name = tensor<string, []>("input_223_keep_dims_0"), val = tensor<bool, []>(true)];
            tensor<fp16, [1, 1024, 1, 1]> input_223_cast_fp16 = reduce_mean(axes = input_223_axes_0, keep_dims = input_223_keep_dims_0, x = input_221_cast_fp16)[name = tensor<string, []>("input_223_cast_fp16")];
            tensor<string, []> input_225_pad_type_0 = const()[name = tensor<string, []>("input_225_pad_type_0"), val = tensor<string, []>("valid")];
            tensor<int32, [2]> input_225_strides_0 = const()[name = tensor<string, []>("input_225_strides_0"), val = tensor<int32, [2]>([1, 1])];
            tensor<int32, [4]> input_225_pad_0 = const()[name = tensor<string, []>("input_225_pad_0"), val = tensor<int32, [4]>([0, 0, 0, 0])];
            tensor<int32, [2]> input_225_dilations_0 = const()[name = tensor<string, []>("input_225_dilations_0"), val = tensor<int32, [2]>([1, 1])];
            tensor<int32, []> input_225_groups_0 = const()[name = tensor<string, []>("input_225_groups_0"), val = tensor<int32, []>(1)];
            tensor<fp16, [64, 1024, 1, 1]> model_generator_encoder_layer3_3_selayer_conv1_weight_to_fp16 = const()[name = tensor<string, []>("model_generator_encoder_layer3_3_selayer_conv1_weight_to_fp16"), val = tensor<fp16, [64, 1024, 1, 1]>(BLOBFILE(path = tensor<string, []>("@model_path/weights/weight.bin"), offset = tensor<uint64, []>(14337664)))];
            tensor<fp16, [64]> model_generator_encoder_layer3_3_selayer_conv1_bias_to_fp16 = const()[name = tensor<string, []>("model_generator_encoder_layer3_3_selayer_conv1_bias_to_fp16"), val = tensor<fp16, [64]>(BLOBFILE(path = tensor<string, []>("@model_path/weights/weight.bin"), offset = tensor<uint64, []>(14468800)))];
            tensor<fp16, [1, 64, 1, 1]> input_225_cast_fp16 = conv(bias = model_generator_encoder_layer3_3_selayer_conv1_bias_to_fp16, dilations = input_225_dilations_0, groups = input_225_groups_0, pad = input_225_pad_0, pad_type = input_225_pad_type_0, strides = input_225_strides_0, weight = model_generator_encoder_layer3_3_selayer_conv1_weight_to_fp16, x = input_223_cast_fp16)[name = tensor<string, []>("input_225_cast_fp16")];
            tensor<fp16, [1, 64, 1, 1]> var_891_cast_fp16 = relu(x = input_225_cast_fp16)[name = tensor<string, []>("op_891_cast_fp16")];
            tensor<string, []> input_227_pad_type_0 = const()[name = tensor<string, []>("input_227_pad_type_0"), val = tensor<string, []>("valid")];
            tensor<int32, [2]> input_227_strides_0 = const()[name = tensor<string, []>("input_227_strides_0"), val = tensor<int32, [2]>([1, 1])];
            tensor<int32, [4]> input_227_pad_0 = const()[name = tensor<string, []>("input_227_pad_0"), val = tensor<int32, [4]>([0, 0, 0, 0])];
            tensor<int32, [2]> input_227_dilations_0 = const()[name = tensor<string, []>("input_227_dilations_0"), val = tensor<int32, [2]>([1, 1])];
            tensor<int32, []> input_227_groups_0 = const()[name = tensor<string, []>("input_227_groups_0"), val = tensor<int32, []>(1)];
            tensor<fp16, [1024, 64, 1, 1]> model_generator_encoder_layer3_3_selayer_conv2_weight_to_fp16 = const()[name = tensor<string, []>("model_generator_encoder_layer3_3_selayer_conv2_weight_to_fp16"), val = tensor<fp16, [1024, 64, 1, 1]>(BLOBFILE(path = tensor<string, []>("@model_path/weights/weight.bin"), offset = tensor<uint64, []>(14468992)))];
            tensor<fp16, [1024]> model_generator_encoder_layer3_3_selayer_conv2_bias_to_fp16 = const()[name = tensor<string, []>("model_generator_encoder_layer3_3_selayer_conv2_bias_to_fp16"), val = tensor<fp16, [1024]>(BLOBFILE(path = tensor<string, []>("@model_path/weights/weight.bin"), offset = tensor<uint64, []>(14600128)))];
            tensor<fp16, [1, 1024, 1, 1]> input_227_cast_fp16 = conv(bias = model_generator_encoder_layer3_3_selayer_conv2_bias_to_fp16, dilations = input_227_dilations_0, groups = input_227_groups_0, pad = input_227_pad_0, pad_type = input_227_pad_type_0, strides = input_227_strides_0, weight = model_generator_encoder_layer3_3_selayer_conv2_weight_to_fp16, x = var_891_cast_fp16)[name = tensor<string, []>("input_227_cast_fp16")];
            tensor<fp16, [1, 1024, 1, 1]> var_899_cast_fp16 = sigmoid(x = input_227_cast_fp16)[name = tensor<string, []>("op_899_cast_fp16")];
            tensor<fp16, [1, 1024, ?, ?]> var_900_cast_fp16 = mul(x = input_221_cast_fp16, y = var_899_cast_fp16)[name = tensor<string, []>("op_900_cast_fp16")];
            tensor<fp16, [1, 1024, ?, ?]> input_229_cast_fp16 = add(x = var_900_cast_fp16, y = var_837_cast_fp16)[name = tensor<string, []>("input_229_cast_fp16")];
            tensor<fp16, [1, 1024, ?, ?]> var_902_cast_fp16 = relu(x = input_229_cast_fp16)[name = tensor<string, []>("op_902_cast_fp16")];
            tensor<string, []> input_231_pad_type_0 = const()[name = tensor<string, []>("input_231_pad_type_0"), val = tensor<string, []>("valid")];
            tensor<int32, [2]> input_231_strides_0 = const()[name = tensor<string, []>("input_231_strides_0"), val = tensor<int32, [2]>([1, 1])];
            tensor<int32, [4]> input_231_pad_0 = const()[name = tensor<string, []>("input_231_pad_0"), val = tensor<int32, [4]>([0, 0, 0, 0])];
            tensor<int32, [2]> input_231_dilations_0 = const()[name = tensor<string, []>("input_231_dilations_0"), val = tensor<int32, [2]>([1, 1])];
            tensor<int32, []> input_231_groups_0 = const()[name = tensor<string, []>("input_231_groups_0"), val = tensor<int32, []>(1)];
            tensor<fp16, [512, 1024, 1, 1]> const_74_to_fp16 = const()[name = tensor<string, []>("const_74_to_fp16"), val = tensor<fp16, [512, 1024, 1, 1]>(BLOBFILE(path = tensor<string, []>("@model_path/weights/weight.bin"), offset = tensor<uint64, []>(14602240)))];
            tensor<fp16, [512]> const_75_to_fp16 = const()[name = tensor<string, []>("const_75_to_fp16"), val = tensor<fp16, [512]>(BLOBFILE(path = tensor<string, []>("@model_path/weights/weight.bin"), offset = tensor<uint64, []>(15650880)))];
            tensor<fp16, [1, 512, ?, ?]> input_233_cast_fp16 = conv(bias = const_75_to_fp16, dilations = input_231_dilations_0, groups = input_231_groups_0, pad = input_231_pad_0, pad_type = input_231_pad_type_0, strides = input_231_strides_0, weight = const_74_to_fp16, x = var_902_cast_fp16)[name = tensor<string, []>("input_233_cast_fp16")];
            tensor<fp16, [1, 512, ?, ?]> var_921_cast_fp16 = relu(x = input_233_cast_fp16)[name = tensor<string, []>("op_921_cast_fp16")];
            tensor<string, []> input_235_pad_type_0 = const()[name = tensor<string, []>("input_235_pad_type_0"), val = tensor<string, []>("custom")];
            tensor<int32, [4]> input_235_pad_0 = const()[name = tensor<string, []>("input_235_pad_0"), val = tensor<int32, [4]>([1, 1, 1, 1])];
            tensor<int32, []> input_235_groups_0 = const()[name = tensor<string, []>("input_235_groups_0"), val = tensor<int32, []>(32)];
            tensor<int32, [2]> input_235_strides_0 = const()[name = tensor<string, []>("input_235_strides_0"), val = tensor<int32, [2]>([1, 1])];
            tensor<int32, [2]> input_235_dilations_0 = const()[name = tensor<string, []>("input_235_dilations_0"), val = tensor<int32, [2]>([1, 1])];
            tensor<fp16, [512, 16, 3, 3]> const_76_to_fp16 = const()[name = tensor<string, []>("const_76_to_fp16"), val = tensor<fp16, [512, 16, 3, 3]>(BLOBFILE(path = tensor<string, []>("@model_path/weights/weight.bin"), offset = tensor<uint64, []>(15651968)))];
            tensor<fp16, [512]> const_77_to_fp16 = const()[name = tensor<string, []>("const_77_to_fp16"), val = tensor<fp16, [512]>(BLOBFILE(path = tensor<string, []>("@model_path/weights/weight.bin"), offset = tensor<uint64, []>(15799488)))];
            tensor<fp16, [1, 512, ?, ?]> input_237_cast_fp16 = conv(bias = const_77_to_fp16, dilations = input_235_dilations_0, groups = input_235_groups_0, pad = input_235_pad_0, pad_type = input_235_pad_type_0, strides = input_235_strides_0, weight = const_76_to_fp16, x = var_921_cast_fp16)[name = tensor<string, []>("input_237_cast_fp16")];
            tensor<fp16, [1, 512, ?, ?]> var_933_cast_fp16 = relu(x = input_237_cast_fp16)[name = tensor<string, []>("op_933_cast_fp16")];
            tensor<string, []> input_239_pad_type_0 = const()[name = tensor<string, []>("input_239_pad_type_0"), val = tensor<string, []>("valid")];
            tensor<int32, [2]> input_239_strides_0 = const()[name = tensor<string, []>("input_239_strides_0"), val = tensor<int32, [2]>([1, 1])];
            tensor<int32, [4]> input_239_pad_0 = const()[name = tensor<string, []>("input_239_pad_0"), val = tensor<int32, [4]>([0, 0, 0, 0])];
            tensor<int32, [2]> input_239_dilations_0 = const()[name = tensor<string, []>("input_239_dilations_0"), val = tensor<int32, [2]>([1, 1])];
            tensor<int32, []> input_239_groups_0 = const()[name = tensor<string, []>("input_239_groups_0"), val = tensor<int32, []>(1)];
            tensor<fp16, [1024, 512, 1, 1]> const_78_to_fp16 = const()[name = tensor<string, []>("const_78_to_fp16"), val = tensor<fp16, [1024, 512, 1, 1]>(BLOBFILE(path = tensor<string, []>("@model_path/weights/weight.bin"), offset = tensor<uint64, []>(15800576)))];
            tensor<fp16, [1024]> const_79_to_fp16 = const()[name = tensor<string, []>("const_79_to_fp16"), val = tensor<fp16, [1024]>(BLOBFILE(path = tensor<string, []>("@model_path/weights/weight.bin"), offset = tensor<uint64, []>(16849216)))];
            tensor<fp16, [1, 1024, ?, ?]> input_241_cast_fp16 = conv(bias = const_79_to_fp16, dilations = input_239_dilations_0, groups = input_239_groups_0, pad = input_239_pad_0, pad_type = input_239_pad_type_0, strides = input_239_strides_0, weight = const_78_to_fp16, x = var_933_cast_fp16)[name = tensor<string, []>("input_241_cast_fp16")];
            tensor<int32, [2]> input_243_axes_0 = const()[name = tensor<string, []>("input_243_axes_0"), val = tensor<int32, [2]>([-2, -1])];
            tensor<bool, []> input_243_keep_dims_0 = const()[name = tensor<string, []>("input_243_keep_dims_0"), val = tensor<bool, []>(true)];
            tensor<fp16, [1, 1024, 1, 1]> input_243_cast_fp16 = reduce_mean(axes = input_243_axes_0, keep_dims = input_243_keep_dims_0, x = input_241_cast_fp16)[name = tensor<string, []>("input_243_cast_fp16")];
            tensor<string, []> input_245_pad_type_0 = const()[name = tensor<string, []>("input_245_pad_type_0"), val = tensor<string, []>("valid")];
            tensor<int32, [2]> input_245_strides_0 = const()[name = tensor<string, []>("input_245_strides_0"), val = tensor<int32, [2]>([1, 1])];
            tensor<int32, [4]> input_245_pad_0 = const()[name = tensor<string, []>("input_245_pad_0"), val = tensor<int32, [4]>([0, 0, 0, 0])];
            tensor<int32, [2]> input_245_dilations_0 = const()[name = tensor<string, []>("input_245_dilations_0"), val = tensor<int32, [2]>([1, 1])];
            tensor<int32, []> input_245_groups_0 = const()[name = tensor<string, []>("input_245_groups_0"), val = tensor<int32, []>(1)];
            tensor<fp16, [64, 1024, 1, 1]> model_generator_encoder_layer3_4_selayer_conv1_weight_to_fp16 = const()[name = tensor<string, []>("model_generator_encoder_layer3_4_selayer_conv1_weight_to_fp16"), val = tensor<fp16, [64, 1024, 1, 1]>(BLOBFILE(path = tensor<string, []>("@model_path/weights/weight.bin"), offset = tensor<uint64, []>(16851328)))];
            tensor<fp16, [64]> model_generator_encoder_layer3_4_selayer_conv1_bias_to_fp16 = const()[name = tensor<string, []>("model_generator_encoder_layer3_4_selayer_conv1_bias_to_fp16"), val = tensor<fp16, [64]>(BLOBFILE(path = tensor<string, []>("@model_path/weights/weight.bin"), offset = tensor<uint64, []>(16982464)))];
            tensor<fp16, [1, 64, 1, 1]> input_245_cast_fp16 = conv(bias = model_generator_encoder_layer3_4_selayer_conv1_bias_to_fp16, dilations = input_245_dilations_0, groups = input_245_groups_0, pad = input_245_pad_0, pad_type = input_245_pad_type_0, strides = input_245_strides_0, weight = model_generator_encoder_layer3_4_selayer_conv1_weight_to_fp16, x = input_243_cast_fp16)[name = tensor<string, []>("input_245_cast_fp16")];
            tensor<fp16, [1, 64, 1, 1]> var_956_cast_fp16 = relu(x = input_245_cast_fp16)[name = tensor<string, []>("op_956_cast_fp16")];
            tensor<string, []> input_247_pad_type_0 = const()[name = tensor<string, []>("input_247_pad_type_0"), val = tensor<string, []>("valid")];
            tensor<int32, [2]> input_247_strides_0 = const()[name = tensor<string, []>("input_247_strides_0"), val = tensor<int32, [2]>([1, 1])];
            tensor<int32, [4]> input_247_pad_0 = const()[name = tensor<string, []>("input_247_pad_0"), val = tensor<int32, [4]>([0, 0, 0, 0])];
            tensor<int32, [2]> input_247_dilations_0 = const()[name = tensor<string, []>("input_247_dilations_0"), val = tensor<int32, [2]>([1, 1])];
            tensor<int32, []> input_247_groups_0 = const()[name = tensor<string, []>("input_247_groups_0"), val = tensor<int32, []>(1)];
            tensor<fp16, [1024, 64, 1, 1]> model_generator_encoder_layer3_4_selayer_conv2_weight_to_fp16 = const()[name = tensor<string, []>("model_generator_encoder_layer3_4_selayer_conv2_weight_to_fp16"), val = tensor<fp16, [1024, 64, 1, 1]>(BLOBFILE(path = tensor<string, []>("@model_path/weights/weight.bin"), offset = tensor<uint64, []>(16982656)))];
            tensor<fp16, [1024]> model_generator_encoder_layer3_4_selayer_conv2_bias_to_fp16 = const()[name = tensor<string, []>("model_generator_encoder_layer3_4_selayer_conv2_bias_to_fp16"), val = tensor<fp16, [1024]>(BLOBFILE(path = tensor<string, []>("@model_path/weights/weight.bin"), offset = tensor<uint64, []>(17113792)))];
            tensor<fp16, [1, 1024, 1, 1]> input_247_cast_fp16 = conv(bias = model_generator_encoder_layer3_4_selayer_conv2_bias_to_fp16, dilations = input_247_dilations_0, groups = input_247_groups_0, pad = input_247_pad_0, pad_type = input_247_pad_type_0, strides = input_247_strides_0, weight = model_generator_encoder_layer3_4_selayer_conv2_weight_to_fp16, x = var_956_cast_fp16)[name = tensor<string, []>("input_247_cast_fp16")];
            tensor<fp16, [1, 1024, 1, 1]> var_964_cast_fp16 = sigmoid(x = input_247_cast_fp16)[name = tensor<string, []>("op_964_cast_fp16")];
            tensor<fp16, [1, 1024, ?, ?]> var_965_cast_fp16 = mul(x = input_241_cast_fp16, y = var_964_cast_fp16)[name = tensor<string, []>("op_965_cast_fp16")];
            tensor<fp16, [1, 1024, ?, ?]> input_249_cast_fp16 = add(x = var_965_cast_fp16, y = var_902_cast_fp16)[name = tensor<string, []>("input_249_cast_fp16")];
            tensor<fp16, [1, 1024, ?, ?]> var_967_cast_fp16 = relu(x = input_249_cast_fp16)[name = tensor<string, []>("op_967_cast_fp16")];
            tensor<string, []> input_16_pad_type_0 = const()[name = tensor<string, []>("input_16_pad_type_0"), val = tensor<string, []>("valid")];
            tensor<int32, [2]> input_16_strides_0 = const()[name = tensor<string, []>("input_16_strides_0"), val = tensor<int32, [2]>([1, 1])];
            tensor<int32, [4]> input_16_pad_0 = const()[name = tensor<string, []>("input_16_pad_0"), val = tensor<int32, [4]>([0, 0, 0, 0])];
            tensor<int32, [2]> input_16_dilations_0 = const()[name = tensor<string, []>("input_16_dilations_0"), val = tensor<int32, [2]>([1, 1])];
            tensor<int32, []> input_16_groups_0 = const()[name = tensor<string, []>("input_16_groups_0"), val = tensor<int32, []>(1)];
            tensor<fp16, [512, 1024, 1, 1]> const_80_to_fp16 = const()[name = tensor<string, []>("const_80_to_fp16"), val = tensor<fp16, [512, 1024, 1, 1]>(BLOBFILE(path = tensor<string, []>("@model_path/weights/weight.bin"), offset = tensor<uint64, []>(17115904)))];
            tensor<fp16, [512]> const_81_to_fp16 = const()[name = tensor<string, []>("const_81_to_fp16"), val = tensor<fp16, [512]>(BLOBFILE(path = tensor<string, []>("@model_path/weights/weight.bin"), offset = tensor<uint64, []>(18164544)))];
            tensor<fp16, [1, 512, ?, ?]> input_369_cast_fp16 = conv(bias = const_81_to_fp16, dilations = input_16_dilations_0, groups = input_16_groups_0, pad = input_16_pad_0, pad_type = input_16_pad_type_0, strides = input_16_strides_0, weight = const_80_to_fp16, x = var_967_cast_fp16)[name = tensor<string, []>("input_369_cast_fp16")];
            tensor<fp16, [1, 512, ?, ?]> var_986_cast_fp16 = relu(x = input_369_cast_fp16)[name = tensor<string, []>("op_986_cast_fp16")];
            tensor<string, []> input_137_pad_type_0 = const()[name = tensor<string, []>("input_137_pad_type_0"), val = tensor<string, []>("custom")];
            tensor<int32, [4]> input_137_pad_0 = const()[name = tensor<string, []>("input_137_pad_0"), val = tensor<int32, [4]>([1, 1, 1, 1])];
            tensor<int32, []> input_137_groups_0 = const()[name = tensor<string, []>("input_137_groups_0"), val = tensor<int32, []>(32)];
            tensor<int32, [2]> input_137_strides_0 = const()[name = tensor<string, []>("input_137_strides_0"), val = tensor<int32, [2]>([1, 1])];
            tensor<int32, [2]> input_137_dilations_0 = const()[name = tensor<string, []>("input_137_dilations_0"), val = tensor<int32, [2]>([1, 1])];
            tensor<fp16, [512, 16, 3, 3]> const_82_to_fp16 = const()[name = tensor<string, []>("const_82_to_fp16"), val = tensor<fp16, [512, 16, 3, 3]>(BLOBFILE(path = tensor<string, []>("@model_path/weights/weight.bin"), offset = tensor<uint64, []>(18165632)))];
            tensor<fp16, [512]> const_83_to_fp16 = const()[name = tensor<string, []>("const_83_to_fp16"), val = tensor<fp16, [512]>(BLOBFILE(path = tensor<string, []>("@model_path/weights/weight.bin"), offset = tensor<uint64, []>(18313152)))];
            tensor<fp16, [1, 512, ?, ?]> input_255_cast_fp16 = conv(bias = const_83_to_fp16, dilations = input_137_dilations_0, groups = input_137_groups_0, pad = input_137_pad_0, pad_type = input_137_pad_type_0, strides = input_137_strides_0, weight = const_82_to_fp16, x = var_986_cast_fp16)[name = tensor<string, []>("input_255_cast_fp16")];
            tensor<fp16, [1, 512, ?, ?]> var_998_cast_fp16 = relu(x = input_255_cast_fp16)[name = tensor<string, []>("op_998_cast_fp16")];
            tensor<string, []> input_375_pad_type_0 = const()[name = tensor<string, []>("input_375_pad_type_0"), val = tensor<string, []>("valid")];
            tensor<int32, [2]> input_375_strides_0 = const()[name = tensor<string, []>("input_375_strides_0"), val = tensor<int32, [2]>([1, 1])];
            tensor<int32, [4]> input_375_pad_0 = const()[name = tensor<string, []>("input_375_pad_0"), val = tensor<int32, [4]>([0, 0, 0, 0])];
            tensor<int32, [2]> input_375_dilations_0 = const()[name = tensor<string, []>("input_375_dilations_0"), val = tensor<int32, [2]>([1, 1])];
            tensor<int32, []> input_375_groups_0 = const()[name = tensor<string, []>("input_375_groups_0"), val = tensor<int32, []>(1)];
            tensor<fp16, [1024, 512, 1, 1]> const_84_to_fp16 = const()[name = tensor<string, []>("const_84_to_fp16"), val = tensor<fp16, [1024, 512, 1, 1]>(BLOBFILE(path = tensor<string, []>("@model_path/weights/weight.bin"), offset = tensor<uint64, []>(18314240)))];
            tensor<fp16, [1024]> const_85_to_fp16 = const()[name = tensor<string, []>("const_85_to_fp16"), val = tensor<fp16, [1024]>(BLOBFILE(path = tensor<string, []>("@model_path/weights/weight.bin"), offset = tensor<uint64, []>(19362880)))];
            tensor<fp16, [1, 1024, ?, ?]> input_18_cast_fp16 = conv(bias = const_85_to_fp16, dilations = input_375_dilations_0, groups = input_375_groups_0, pad = input_375_pad_0, pad_type = input_375_pad_type_0, strides = input_375_strides_0, weight = const_84_to_fp16, x = var_998_cast_fp16)[name = tensor<string, []>("input_18_cast_fp16")];
            tensor<int32, [2]> input_251_axes_0 = const()[name = tensor<string, []>("input_251_axes_0"), val = tensor<int32, [2]>([-2, -1])];
            tensor<bool, []> input_251_keep_dims_0 = const()[name = tensor<string, []>("input_251_keep_dims_0"), val = tensor<bool, []>(true)];
            tensor<fp16, [1, 1024, 1, 1]> input_251_cast_fp16 = reduce_mean(axes = input_251_axes_0, keep_dims = input_251_keep_dims_0, x = input_18_cast_fp16)[name = tensor<string, []>("input_251_cast_fp16")];
            tensor<string, []> input_253_pad_type_0 = const()[name = tensor<string, []>("input_253_pad_type_0"), val = tensor<string, []>("valid")];
            tensor<int32, [2]> input_253_strides_0 = const()[name = tensor<string, []>("input_253_strides_0"), val = tensor<int32, [2]>([1, 1])];
            tensor<int32, [4]> input_253_pad_0 = const()[name = tensor<string, []>("input_253_pad_0"), val = tensor<int32, [4]>([0, 0, 0, 0])];
            tensor<int32, [2]> input_253_dilations_0 = const()[name = tensor<string, []>("input_253_dilations_0"), val = tensor<int32, [2]>([1, 1])];
…
            tensor<int32, [2]> input3_8_strides_0 = const()[name = tensor<string, []>("input3_8_strides_0"), val = tensor<int32, [2]>([1, 1])];
            tensor<int32, [4]> input3_8_pad_0 = const()[name = tensor<string, []>("input3_8_pad_0"), val = tensor<int32, [4]>([0, 0, 0, 0])];
            tensor<int32, [2]> input3_8_dilations_0 = const()[name = tensor<string, []>("input3_8_dilations_0"), val = tensor<int32, [2]>([1, 1])];
            tensor<int32, []> input3_8_groups_0 = const()[name = tensor<string, []>("input3_8_groups_0"), val = tensor<int32, []>(1)];
            tensor<fp16, [128, 64, 1, 1]> model_generator_tunnel2_2_3_conv_expand_weight_to_fp16 = const()[name = tensor<string, []>("model_generator_tunnel2_2_3_conv_expand_weight_to_fp16"), val = tensor<fp16, [128, 64, 1, 1]>(BLOBFILE(path = tensor<string, []>("@model_path/weights/weight.bin"), offset = tensor<uint64, []>(60583808)))];
            tensor<fp16, [1, 128, ?, ?]> input3_8_cast_fp16 = conv(dilations = input3_8_dilations_0, groups = input3_8_groups_0, pad = input3_8_pad_0, pad_type = input3_8_pad_type_0, strides = input3_8_strides_0, weight = model_generator_tunnel2_2_3_conv_expand_weight_to_fp16, x = input2_8_cast_fp16)[name = tensor<string, []>("input3_8_cast_fp16")];
            tensor<int32, [2]> input0_17_axes_0 = const()[name = tensor<string, []>("input0_17_axes_0"), val = tensor<int32, [2]>([-2, -1])];
            tensor<bool, []> input0_17_keep_dims_0 = const()[name = tensor<string, []>("input0_17_keep_dims_0"), val = tensor<bool, []>(true)];
            tensor<fp16, [1, 128, 1, 1]> input0_17_cast_fp16 = reduce_mean(axes = input0_17_axes_0, keep_dims = input0_17_keep_dims_0, x = input3_8_cast_fp16)[name = tensor<string, []>("input0_17_cast_fp16")];
            tensor<string, []> input_23_pad_type_0 = const()[name = tensor<string, []>("input_23_pad_type_0"), val = tensor<string, []>("valid")];
            tensor<int32, [2]> input_23_strides_0 = const()[name = tensor<string, []>("input_23_strides_0"), val = tensor<int32, [2]>([1, 1])];
            tensor<int32, [4]> input_23_pad_0 = const()[name = tensor<string, []>("input_23_pad_0"), val = tensor<int32, [4]>([0, 0, 0, 0])];
            tensor<int32, [2]> input_23_dilations_0 = const()[name = tensor<string, []>("input_23_dilations_0"), val = tensor<int32, [2]>([1, 1])];
            tensor<int32, []> input_23_groups_0 = const()[name = tensor<string, []>("input_23_groups_0"), val = tensor<int32, []>(1)];
            tensor<fp16, [8, 128, 1, 1]> model_generator_tunnel2_2_3_selayer_conv1_weight_to_fp16 = const()[name = tensor<string, []>("model_generator_tunnel2_2_3_selayer_conv1_weight_to_fp16"), val = tensor<fp16, [8, 128, 1, 1]>(BLOBFILE(path = tensor<string, []>("@model_path/weights/weight.bin"), offset = tensor<uint64, []>(60600256)))];
            tensor<fp16, [8]> model_generator_tunnel2_2_3_selayer_conv1_bias_to_fp16 = const()[name = tensor<string, []>("model_generator_tunnel2_2_3_selayer_conv1_bias_to_fp16"), val = tensor<fp16, [8]>([0x1.894p-4, 0x1.0f8p-3, 0x1.44p-5, 0x1.38cp-6, 0x1.464p-3, 0x1.e74p-7, -0x1.1b8p-7, 0x1.98cp-4])];
            tensor<fp16, [1, 8, 1, 1]> input_23_cast_fp16 = conv(bias = model_generator_tunnel2_2_3_selayer_conv1_bias_to_fp16, dilations = input_23_dilations_0, groups = input_23_groups_0, pad = input_23_pad_0, pad_type = input_23_pad_type_0, strides = input_23_strides_0, weight = model_generator_tunnel2_2_3_selayer_conv1_weight_to_fp16, x = input0_17_cast_fp16)[name = tensor<string, []>("input_23_cast_fp16")];
            tensor<fp16, [1, 8, 1, 1]> var_2592_cast_fp16 = relu(x = input_23_cast_fp16)[name = tensor<string, []>("op_2592_cast_fp16")];
            tensor<string, []> input_25_pad_type_0 = const()[name = tensor<string, []>("input_25_pad_type_0"), val = tensor<string, []>("valid")];
            tensor<int32, [2]> input_25_strides_0 = const()[name = tensor<string, []>("input_25_strides_0"), val = tensor<int32, [2]>([1, 1])];
            tensor<int32, [4]> input_25_pad_0 = const()[name = tensor<string, []>("input_25_pad_0"), val = tensor<int32, [4]>([0, 0, 0, 0])];
            tensor<int32, [2]> input_25_dilations_0 = const()[name = tensor<string, []>("input_25_dilations_0"), val = tensor<int32, [2]>([1, 1])];
            tensor<int32, []> input_25_groups_0 = const()[name = tensor<string, []>("input_25_groups_0"), val = tensor<int32, []>(1)];
            tensor<fp16, [128, 8, 1, 1]> model_generator_tunnel2_2_3_selayer_conv2_weight_to_fp16 = const()[name = tensor<string, []>("model_generator_tunnel2_2_3_selayer_conv2_weight_to_fp16"), val = tensor<fp16, [128, 8, 1, 1]>(BLOBFILE(path = tensor<string, []>("@model_path/weights/weight.bin"), offset = tensor<uint64, []>(60602368)))];
            tensor<fp16, [128]> model_generator_tunnel2_2_3_selayer_conv2_bias_to_fp16 = const()[name = tensor<string, []>("model_generator_tunnel2_2_3_selayer_conv2_bias_to_fp16"), val = tensor<fp16, [128]>(BLOBFILE(path = tensor<string, []>("@model_path/weights/weight.bin"), offset = tensor<uint64, []>(60604480)))];
            tensor<fp16, [1, 128, 1, 1]> input_25_cast_fp16 = conv(bias = model_generator_tunnel2_2_3_selayer_conv2_bias_to_fp16, dilations = input_25_dilations_0, groups = input_25_groups_0, pad = input_25_pad_0, pad_type = input_25_pad_type_0, strides = input_25_strides_0, weight = model_generator_tunnel2_2_3_selayer_conv2_weight_to_fp16, x = var_2592_cast_fp16)[name = tensor<string, []>("input_25_cast_fp16")];
            tensor<fp16, [1, 128, 1, 1]> var_2600_cast_fp16 = sigmoid(x = input_25_cast_fp16)[name = tensor<string, []>("op_2600_cast_fp16")];
            tensor<fp16, [1, 128, ?, ?]> bottleneck_8_cast_fp16 = mul(x = input3_8_cast_fp16, y = var_2600_cast_fp16)[name = tensor<string, []>("bottleneck_8_cast_fp16")];
            tensor<fp16, [1, 128, ?, ?]> input4_8_cast_fp16 = add(x = input4_6_cast_fp16, y = bottleneck_8_cast_fp16)[name = tensor<string, []>("input4_8_cast_fp16")];
            tensor<string, []> input_27_pad_type_0 = const()[name = tensor<string, []>("input_27_pad_type_0"), val = tensor<string, []>("valid")];
            tensor<int32, [2]> input_27_strides_0 = const()[name = tensor<string, []>("input_27_strides_0"), val = tensor<int32, [2]>([1, 1])];
            tensor<int32, [4]> input_27_pad_0 = const()[name = tensor<string, []>("input_27_pad_0"), val = tensor<int32, [4]>([0, 0, 0, 0])];
            tensor<int32, [2]> input_27_dilations_0 = const()[name = tensor<string, []>("input_27_dilations_0"), val = tensor<int32, [2]>([1, 1])];
            tensor<int32, []> input_27_groups_0 = const()[name = tensor<string, []>("input_27_groups_0"), val = tensor<int32, []>(1)];
            tensor<fp16, [64, 128, 1, 1]> model_generator_tunnel2_2_4_conv_reduce_weight_to_fp16 = const()[name = tensor<string, []>("model_generator_tunnel2_2_4_conv_reduce_weight_to_fp16"), val = tensor<fp16, [64, 128, 1, 1]>(BLOBFILE(path = tensor<string, []>("@model_path/weights/weight.bin"), offset = tensor<uint64, []>(60604800)))];
            tensor<fp16, [1, 64, ?, ?]> input_27_cast_fp16 = conv(dilations = input_27_dilations_0, groups = input_27_groups_0, pad = input_27_pad_0, pad_type = input_27_pad_type_0, strides = input_27_strides_0, weight = model_generator_tunnel2_2_4_conv_reduce_weight_to_fp16, x = input4_8_cast_fp16)[name = tensor<string, []>("input_27_cast_fp16")];
            tensor<fp16, [1, 64, ?, ?]> input0_19_cast_fp16 = leaky_relu(alpha = var_22_to_fp16, x = input_27_cast_fp16)[name = tensor<string, []>("input0_19_cast_fp16")];
            tensor<string, []> input1_10_pad_type_0 = const()[name = tensor<string, []>("input1_10_pad_type_0"), val = tensor<string, []>("custom")];
            tensor<int32, [4]> input1_10_pad_0 = const()[name = tensor<string, []>("input1_10_pad_0"), val = tensor<int32, [4]>([4, 4, 4, 4])];
            tensor<int32, [2]> input1_10_dilations_0 = const()[name = tensor<string, []>("input1_10_dilations_0"), val = tensor<int32, [2]>([4, 4])];
            tensor<int32, []> input1_10_groups_0 = const()[name = tensor<string, []>("input1_10_groups_0"), val = tensor<int32, []>(32)];
            tensor<int32, [2]> input1_10_strides_0 = const()[name = tensor<string, []>("input1_10_strides_0"), val = tensor<int32, [2]>([1, 1])];
            tensor<fp16, [64, 2, 3, 3]> model_generator_tunnel2_2_4_conv_conv_weight_to_fp16 = const()[name = tensor<string, []>("model_generator_tunnel2_2_4_conv_conv_weight_to_fp16"), val = tensor<fp16, [64, 2, 3, 3]>(BLOBFILE(path = tensor<string, []>("@model_path/weights/weight.bin"), offset = tensor<uint64, []>(60621248)))];
            tensor<fp16, [1, 64, ?, ?]> input1_10_cast_fp16 = conv(dilations = input1_10_dilations_0, groups = input1_10_groups_0, pad = input1_10_pad_0, pad_type = input1_10_pad_type_0, strides = input1_10_strides_0, weight = model_generator_tunnel2_2_4_conv_conv_weight_to_fp16, x = input0_19_cast_fp16)[name = tensor<string, []>("input1_10_cast_fp16")];
            tensor<fp16, [1, 64, ?, ?]> input2_10_cast_fp16 = leaky_relu(alpha = var_22_to_fp16, x = input1_10_cast_fp16)[name = tensor<string, []>("input2_10_cast_fp16")];
            tensor<string, []> input3_10_pad_type_0 = const()[name = tensor<string, []>("input3_10_pad_type_0"), val = tensor<string, []>("valid")];
            tensor<int32, [2]> input3_10_strides_0 = const()[name = tensor<string, []>("input3_10_strides_0"), val = tensor<int32, [2]>([1, 1])];
            tensor<int32, [4]> input3_10_pad_0 = const()[name = tensor<string, []>("input3_10_pad_0"), val = tensor<int32, [4]>([0, 0, 0, 0])];
            tensor<int32, [2]> input3_10_dilations_0 = const()[name = tensor<string, []>("input3_10_dilations_0"), val = tensor<int32, [2]>([1, 1])];
            tensor<int32, []> input3_10_groups_0 = const()[name = tensor<string, []>("input3_10_groups_0"), val = tensor<int32, []>(1)];
            tensor<fp16, [128, 64, 1, 1]> model_generator_tunnel2_2_4_conv_expand_weight_to_fp16 = const()[name = tensor<string, []>("model_generator_tunnel2_2_4_conv_expand_weight_to_fp16"), val = tensor<fp16, [128, 64, 1, 1]>(BLOBFILE(path = tensor<string, []>("@model_path/weights/weight.bin"), offset = tensor<uint64, []>(60623616)))];
            tensor<fp16, [1, 128, ?, ?]> input3_10_cast_fp16 = conv(dilations = input3_10_dilations_0, groups = input3_10_groups_0, pad = input3_10_pad_0, pad_type = input3_10_pad_type_0, strides = input3_10_strides_0, weight = model_generator_tunnel2_2_4_conv_expand_weight_to_fp16, x = input2_10_cast_fp16)[name = tensor<string, []>("input3_10_cast_fp16")];
            tensor<int32, [2]> input0_21_axes_0 = const()[name = tensor<string, []>("input0_21_axes_0"), val = tensor<int32, [2]>([-2, -1])];
            tensor<bool, []> input0_21_keep_dims_0 = const()[name = tensor<string, []>("input0_21_keep_dims_0"), val = tensor<bool, []>(true)];
            tensor<fp16, [1, 128, 1, 1]> input0_21_cast_fp16 = reduce_mean(axes = input0_21_axes_0, keep_dims = input0_21_keep_dims_0, x = input3_10_cast_fp16)[name = tensor<string, []>("input0_21_cast_fp16")];
            tensor<string, []> input_29_pad_type_0 = const()[name = tensor<string, []>("input_29_pad_type_0"), val = tensor<string, []>("valid")];
            tensor<int32, [2]> input_29_strides_0 = const()[name = tensor<string, []>("input_29_strides_0"), val = tensor<int32, [2]>([1, 1])];
            tensor<int32, [4]> input_29_pad_0 = const()[name = tensor<string, []>("input_29_pad_0"), val = tensor<int32, [4]>([0, 0, 0, 0])];
            tensor<int32, [2]> input_29_dilations_0 = const()[name = tensor<string, []>("input_29_dilations_0"), val = tensor<int32, [2]>([1, 1])];
            tensor<int32, []> input_29_groups_0 = const()[name = tensor<string, []>("input_29_groups_0"), val = tensor<int32, []>(1)];
            tensor<fp16, [8, 128, 1, 1]> model_generator_tunnel2_2_4_selayer_conv1_weight_to_fp16 = const()[name = tensor<string, []>("model_generator_tunnel2_2_4_selayer_conv1_weight_to_fp16"), val = tensor<fp16, [8, 128, 1, 1]>(BLOBFILE(path = tensor<string, []>("@model_path/weights/weight.bin"), offset = tensor<uint64, []>(60640064)))];
            tensor<fp16, [8]> model_generator_tunnel2_2_4_selayer_conv1_bias_to_fp16 = const()[name = tensor<string, []>("model_generator_tunnel2_2_4_selayer_conv1_bias_to_fp16"), val = tensor<fp16, [8]>([0x1.8e8p-4, 0x1.2fcp-4, 0x1.b94p-4, 0x1.05cp-3, -0x1.664p-5, 0x1.43cp-5, 0x1.194p-4, -0x1.154p-4])];
            tensor<fp16, [1, 8, 1, 1]> input_29_cast_fp16 = conv(bias = model_generator_tunnel2_2_4_selayer_conv1_bias_to_fp16, dilations = input_29_dilations_0, groups = input_29_groups_0, pad = input_29_pad_0, pad_type = input_29_pad_type_0, strides = input_29_strides_0, weight = model_generator_tunnel2_2_4_selayer_conv1_weight_to_fp16, x = input0_21_cast_fp16)[name = tensor<string, []>("input_29_cast_fp16")];
            tensor<fp16, [1, 8, 1, 1]> var_2638_cast_fp16 = relu(x = input_29_cast_fp16)[name = tensor<string, []>("op_2638_cast_fp16")];
            tensor<string, []> input_31_pad_type_0 = const()[name = tensor<string, []>("input_31_pad_type_0"), val = tensor<string, []>("valid")];
            tensor<int32, [2]> input_31_strides_0 = const()[name = tensor<string, []>("input_31_strides_0"), val = tensor<int32, [2]>([1, 1])];
            tensor<int32, [4]> input_31_pad_0 = const()[name = tensor<string, []>("input_31_pad_0"), val = tensor<int32, [4]>([0, 0, 0, 0])];
            tensor<int32, [2]> input_31_dilations_0 = const()[name = tensor<string, []>("input_31_dilations_0"), val = tensor<int32, [2]>([1, 1])];
            tensor<int32, []> input_31_groups_0 = const()[name = tensor<string, []>("input_31_groups_0"), val = tensor<int32, []>(1)];
            tensor<fp16, [128, 8, 1, 1]> model_generator_tunnel2_2_4_selayer_conv2_weight_to_fp16 = const()[name = tensor<string, []>("model_generator_tunnel2_2_4_selayer_conv2_weight_to_fp16"), val = tensor<fp16, [128, 8, 1, 1]>(BLOBFILE(path = tensor<string, []>("@model_path/weights/weight.bin"), offset = tensor<uint64, []>(60642176)))];
            tensor<fp16, [128]> model_generator_tunnel2_2_4_selayer_conv2_bias_to_fp16 = const()[name = tensor<string, []>("model_generator_tunnel2_2_4_selayer_conv2_bias_to_fp16"), val = tensor<fp16, [128]>(BLOBFILE(path = tensor<string, []>("@model_path/weights/weight.bin"), offset = tensor<uint64, []>(60644288)))];
            tensor<fp16, [1, 128, 1, 1]> input_31_cast_fp16 = conv(bias = model_generator_tunnel2_2_4_selayer_conv2_bias_to_fp16, dilations = input_31_dilations_0, groups = input_31_groups_0, pad = input_31_pad_0, pad_type = input_31_pad_type_0, strides = input_31_strides_0, weight = model_generator_tunnel2_2_4_selayer_conv2_weight_to_fp16, x = var_2638_cast_fp16)[name = tensor<string, []>("input_31_cast_fp16")];
            tensor<fp16, [1, 128, 1, 1]> var_2646_cast_fp16 = sigmoid(x = input_31_cast_fp16)[name = tensor<string, []>("op_2646_cast_fp16")];
            tensor<fp16, [1, 128, ?, ?]> bottleneck_10_cast_fp16 = mul(x = input3_10_cast_fp16, y = var_2646_cast_fp16)[name = tensor<string, []>("bottleneck_10_cast_fp16")];
            tensor<fp16, [1, 128, ?, ?]> input4_10_cast_fp16 = add(x = input4_8_cast_fp16, y = bottleneck_10_cast_fp16)[name = tensor<string, []>("input4_10_cast_fp16")];
            tensor<string, []> input_33_pad_type_0 = const()[name = tensor<string, []>("input_33_pad_type_0"), val = tensor<string, []>("valid")];
            tensor<int32, [2]> input_33_strides_0 = const()[name = tensor<string, []>("input_33_strides_0"), val = tensor<int32, [2]>([1, 1])];
            tensor<int32, [4]> input_33_pad_0 = const()[name = tensor<string, []>("input_33_pad_0"), val = tensor<int32, [4]>([0, 0, 0, 0])];
            tensor<int32, [2]> input_33_dilations_0 = const()[name = tensor<string, []>("input_33_dilations_0"), val = tensor<int32, [2]>([1, 1])];
            tensor<int32, []> input_33_groups_0 = const()[name = tensor<string, []>("input_33_groups_0"), val = tensor<int32, []>(1)];
            tensor<fp16, [64, 128, 1, 1]> model_generator_tunnel2_2_5_conv_reduce_weight_to_fp16 = const()[name = tensor<string, []>("model_generator_tunnel2_2_5_conv_reduce_weight_to_fp16"), val = tensor<fp16, [64, 128, 1, 1]>(BLOBFILE(path = tensor<string, []>("@model_path/weights/weight.bin"), offset = tensor<uint64, []>(60644608)))];
            tensor<fp16, [1, 64, ?, ?]> input_33_cast_fp16 = conv(dilations = input_33_dilations_0, groups = input_33_groups_0, pad = input_33_pad_0, pad_type = input_33_pad_type_0, strides = input_33_strides_0, weight = model_generator_tunnel2_2_5_conv_reduce_weight_to_fp16, x = input4_10_cast_fp16)[name = tensor<string, []>("input_33_cast_fp16")];
            tensor<fp16, [1, 64, ?, ?]> input0_23_cast_fp16 = leaky_relu(alpha = var_22_to_fp16, x = input_33_cast_fp16)[name = tensor<string, []>("input0_23_cast_fp16")];
            tensor<string, []> input1_12_pad_type_0 = const()[name = tensor<string, []>("input1_12_pad_type_0"), val = tensor<string, []>("custom")];
            tensor<int32, [4]> input1_12_pad_0 = const()[name = tensor<string, []>("input1_12_pad_0"), val = tensor<int32, [4]>([4, 4, 4, 4])];
            tensor<int32, [2]> input1_12_dilations_0 = const()[name = tensor<string, []>("input1_12_dilations_0"), val = tensor<int32, [2]>([4, 4])];
            tensor<int32, []> input1_12_groups_0 = const()[name = tensor<string, []>("input1_12_groups_0"), val = tensor<int32, []>(32)];
            tensor<int32, [2]> input1_12_strides_0 = const()[name = tensor<string, []>("input1_12_strides_0"), val = tensor<int32, [2]>([1, 1])];
            tensor<fp16, [64, 2, 3, 3]> model_generator_tunnel2_2_5_conv_conv_weight_to_fp16 = const()[name = tensor<string, []>("model_generator_tunnel2_2_5_conv_conv_weight_to_fp16"), val = tensor<fp16, [64, 2, 3, 3]>(BLOBFILE(path = tensor<string, []>("@model_path/weights/weight.bin"), offset = tensor<uint64, []>(60661056)))];
            tensor<fp16, [1, 64, ?, ?]> input1_12_cast_fp16 = conv(dilations = input1_12_dilations_0, groups = input1_12_groups_0, pad = input1_12_pad_0, pad_type = input1_12_pad_type_0, strides = input1_12_strides_0, weight = model_generator_tunnel2_2_5_conv_conv_weight_to_fp16, x = input0_23_cast_fp16)[name = tensor<string, []>("input1_12_cast_fp16")];
            tensor<fp16, [1, 64, ?, ?]> input2_12_cast_fp16 = leaky_relu(alpha = var_22_to_fp16, x = input1_12_cast_fp16)[name = tensor<string, []>("input2_12_cast_fp16")];
            tensor<string, []> input3_12_pad_type_0 = const()[name = tensor<string, []>("input3_12_pad_type_0"), val = tensor<string, []>("valid")];
            tensor<int32, [2]> input3_12_strides_0 = const()[name = tensor<string, []>("input3_12_strides_0"), val = tensor<int32, [2]>([1, 1])];
            tensor<int32, [4]> input3_12_pad_0 = const()[name = tensor<string, []>("input3_12_pad_0"), val = tensor<int32, [4]>([0, 0, 0, 0])];
            tensor<int32, [2]> input3_12_dilations_0 = const()[name = tensor<string, []>("input3_12_dilations_0"), val = tensor<int32, [2]>([1, 1])];
            tensor<int32, []> input3_12_groups_0 = const()[name = tensor<string, []>("input3_12_groups_0"), val = tensor<int32, []>(1)];
            tensor<fp16, [128, 64, 1, 1]> model_generator_tunnel2_2_5_conv_expand_weight_to_fp16 = const()[name = tensor<string, []>("model_generator_tunnel2_2_5_conv_expand_weight_to_fp16"), val = tensor<fp16, [128, 64, 1, 1]>(BLOBFILE(path = tensor<string, []>("@model_path/weights/weight.bin"), offset = tensor<uint64, []>(60663424)))];
            tensor<fp16, [1, 128, ?, ?]> input3_12_cast_fp16 = conv(dilations = input3_12_dilations_0, groups = input3_12_groups_0, pad = input3_12_pad_0, pad_type = input3_12_pad_type_0, strides = input3_12_strides_0, weight = model_generator_tunnel2_2_5_conv_expand_weight_to_fp16, x = input2_12_cast_fp16)[name = tensor<string, []>("input3_12_cast_fp16")];
            tensor<int32, [2]> input0_25_axes_0 = const()[name = tensor<string, []>("input0_25_axes_0"), val = tensor<int32, [2]>([-2, -1])];
            tensor<bool, []> input0_25_keep_dims_0 = const()[name = tensor<string, []>("input0_25_keep_dims_0"), val = tensor<bool, []>(true)];
            tensor<fp16, [1, 128, 1, 1]> input0_25_cast_fp16 = reduce_mean(axes = input0_25_axes_0, keep_dims = input0_25_keep_dims_0, x = input3_12_cast_fp16)[name = tensor<string, []>("input0_25_cast_fp16")];
            tensor<string, []> input_35_pad_type_0 = const()[name = tensor<string, []>("input_35_pad_type_0"), val = tensor<string, []>("valid")];
            tensor<int32, [2]> input_35_strides_0 = const()[name = tensor<string, []>("input_35_strides_0"), val = tensor<int32, [2]>([1, 1])];
            tensor<int32, [4]> input_35_pad_0 = const()[name = tensor<string, []>("input_35_pad_0"), val = tensor<int32, [4]>([0, 0, 0, 0])];
            tensor<int32, [2]> input_35_dilations_0 = const()[name = tensor<string, []>("input_35_dilations_0"), val = tensor<int32, [2]>([1, 1])];
            tensor<int32, []> input_35_groups_0 = const()[name = tensor<string, []>("input_35_groups_0"), val = tensor<int32, []>(1)];
            tensor<fp16, [8, 128, 1, 1]> model_generator_tunnel2_2_5_selayer_conv1_weight_to_fp16 = const()[name = tensor<string, []>("model_generator_tunnel2_2_5_selayer_conv1_weight_to_fp16"), val = tensor<fp16, [8, 128, 1, 1]>(BLOBFILE(path = tensor<string, []>("@model_path/weights/weight.bin"), offset = tensor<uint64, []>(60679872)))];
            tensor<fp16, [8]> model_generator_tunnel2_2_5_selayer_conv1_bias_to_fp16 = const()[name = tensor<string, []>("model_generator_tunnel2_2_5_selayer_conv1_bias_to_fp16"), val = tensor<fp16, [8]>([0x1.55p-4, 0x1.3p-3, 0x1.5cp-4, 0x1.4ep-3, 0x1.fb4p-4, 0x1.d9cp-4, 0x1.e8p-5, 0x1.344p-3])];
            tensor<fp16, [1, 8, 1, 1]> input_35_cast_fp16 = conv(bias = model_generator_tunnel2_2_5_selayer_conv1_bias_to_fp16, dilations = input_35_dilations_0, groups = input_35_groups_0, pad = input_35_pad_0, pad_type = input_35_pad_type_0, strides = input_35_strides_0, weight = model_generator_tunnel2_2_5_selayer_conv1_weight_to_fp16, x = input0_25_cast_fp16)[name = tensor<string, []>("input_35_cast_fp16")];
            tensor<fp16, [1, 8, 1, 1]> var_2684_cast_fp16 = relu(x = input_35_cast_fp16)[name = tensor<string, []>("op_2684_cast_fp16")];
            tensor<string, []> input_37_pad_type_0 = const()[name = tensor<string, []>("input_37_pad_type_0"), val = tensor<string, []>("valid")];
            tensor<int32, [2]> input_37_strides_0 = const()[name = tensor<string, []>("input_37_strides_0"), val = tensor<int32, [2]>([1, 1])];
            tensor<int32, [4]> input_37_pad_0 = const()[name = tensor<string, []>("input_37_pad_0"), val = tensor<int32, [4]>([0, 0, 0, 0])];
            tensor<int32, [2]> input_37_dilations_0 = const()[name = tensor<string, []>("input_37_dilations_0"), val = tensor<int32, [2]>([1, 1])];
            tensor<int32, []> input_37_groups_0 = const()[name = tensor<string, []>("input_37_groups_0"), val = tensor<int32, []>(1)];
            tensor<fp16, [128, 8, 1, 1]> model_generator_tunnel2_2_5_selayer_conv2_weight_to_fp16 = const()[name = tensor<string, []>("model_generator_tunnel2_2_5_selayer_conv2_weight_to_fp16"), val = tensor<fp16, [128, 8, 1, 1]>(BLOBFILE(path = tensor<string, []>("@model_path/weights/weight.bin"), offset = tensor<uint64, []>(60681984)))];
            tensor<fp16, [128]> model_generator_tunnel2_2_5_selayer_conv2_bias_to_fp16 = const()[name = tensor<string, []>("model_generator_tunnel2_2_5_selayer_conv2_bias_to_fp16"), val = tensor<fp16, [128]>(BLOBFILE(path = tensor<string, []>("@model_path/weights/weight.bin"), offset = tensor<uint64, []>(60684096)))];
            tensor<fp16, [1, 128, 1, 1]> input_37_cast_fp16 = conv(bias = model_generator_tunnel2_2_5_selayer_conv2_bias_to_fp16, dilations = input_37_dilations_0, groups = input_37_groups_0, pad = input_37_pad_0, pad_type = input_37_pad_type_0, strides = input_37_strides_0, weight = model_generator_tunnel2_2_5_selayer_conv2_weight_to_fp16, x = var_2684_cast_fp16)[name = tensor<string, []>("input_37_cast_fp16")];
            tensor<fp16, [1, 128, 1, 1]> var_2692_cast_fp16 = sigmoid(x = input_37_cast_fp16)[name = tensor<string, []>("op_2692_cast_fp16")];
            tensor<fp16, [1, 128, ?, ?]> bottleneck_12_cast_fp16 = mul(x = input3_12_cast_fp16, y = var_2692_cast_fp16)[name = tensor<string, []>("bottleneck_12_cast_fp16")];
            tensor<fp16, [1, 128, ?, ?]> input4_12_cast_fp16 = add(x = input4_10_cast_fp16, y = bottleneck_12_cast_fp16)[name = tensor<string, []>("input4_12_cast_fp16")];
            tensor<string, []> input_39_pad_type_0 = const()[name = tensor<string, []>("input_39_pad_type_0"), val = tensor<string, []>("valid")];
            tensor<int32, [2]> input_39_strides_0 = const()[name = tensor<string, []>("input_39_strides_0"), val = tensor<int32, [2]>([1, 1])];
            tensor<int32, [4]> input_39_pad_0 = const()[name = tensor<string, []>("input_39_pad_0"), val = tensor<int32, [4]>([0, 0, 0, 0])];
            tensor<int32, [2]> input_39_dilations_0 = const()[name = tensor<string, []>("input_39_dilations_0"), val = tensor<int32, [2]>([1, 1])];
            tensor<int32, []> input_39_groups_0 = const()[name = tensor<string, []>("input_39_groups_0"), val = tensor<int32, []>(1)];
            tensor<fp16, [64, 128, 1, 1]> model_generator_tunnel2_2_6_conv_reduce_weight_to_fp16 = const()[name = tensor<string, []>("model_generator_tunnel2_2_6_conv_reduce_weight_to_fp16"), val = tensor<fp16, [64, 128, 1, 1]>(BLOBFILE(path = tensor<string, []>("@model_path/weights/weight.bin"), offset = tensor<uint64, []>(60684416)))];
            tensor<fp16, [1, 64, ?, ?]> input_39_cast_fp16 = conv(dilations = input_39_dilations_0, groups = input_39_groups_0, pad = input_39_pad_0, pad_type = input_39_pad_type_0, strides = input_39_strides_0, weight = model_generator_tunnel2_2_6_conv_reduce_weight_to_fp16, x = input4_12_cast_fp16)[name = tensor<string, []>("input_39_cast_fp16")];
            tensor<fp16, [1, 64, ?, ?]> input0_27_cast_fp16 = leaky_relu(alpha = var_22_to_fp16, x = input_39_cast_fp16)[name = tensor<string, []>("input0_27_cast_fp16")];
            tensor<string, []> input1_14_pad_type_0 = const()[name = tensor<string, []>("input1_14_pad_type_0"), val = tensor<string, []>("custom")];
            tensor<int32, [4]> input1_14_pad_0 = const()[name = tensor<string, []>("input1_14_pad_0"), val = tensor<int32, [4]>([2, 2, 2, 2])];
            tensor<int32, [2]> input1_14_dilations_0 = const()[name = tensor<string, []>("input1_14_dilations_0"), val = tensor<int32, [2]>([2, 2])];
            tensor<int32, []> input1_14_groups_0 = const()[name = tensor<string, []>("input1_14_groups_0"), val = tensor<int32, []>(32)];
            tensor<int32, [2]> input1_14_strides_0 = const()[name = tensor<string, []>("input1_14_strides_0"), val = tensor<int32, [2]>([1, 1])];
            tensor<fp16, [64, 2, 3, 3]> model_generator_tunnel2_2_6_conv_conv_weight_to_fp16 = const()[name = tensor<string, []>("model_generator_tunnel2_2_6_conv_conv_weight_to_fp16"), val = tensor<fp16, [64, 2, 3, 3]>(BLOBFILE(path = tensor<string, []>("@model_path/weights/weight.bin"), offset = tensor<uint64, []>(60700864)))];
            tensor<fp16, [1, 64, ?, ?]> input1_14_cast_fp16 = conv(dilations = input1_14_dilations_0, groups = input1_14_groups_0, pad = input1_14_pad_0, pad_type = input1_14_pad_type_0, strides = input1_14_strides_0, weight = model_generator_tunnel2_2_6_conv_conv_weight_to_fp16, x = input0_27_cast_fp16)[name = tensor<string, []>("input1_14_cast_fp16")];
            tensor<fp16, [1, 64, ?, ?]> input2_14_cast_fp16 = leaky_relu(alpha = var_22_to_fp16, x = input1_14_cast_fp16)[name = tensor<string, []>("input2_14_cast_fp16")];
            tensor<string, []> input3_14_pad_type_0 = const()[name = tensor<string, []>("input3_14_pad_type_0"), val = tensor<string, []>("valid")];
            tensor<int32, [2]> input3_14_strides_0 = const()[name = tensor<string, []>("input3_14_strides_0"), val = tensor<int32, [2]>([1, 1])];
            tensor<int32, [4]> input3_14_pad_0 = const()[name = tensor<string, []>("input3_14_pad_0"), val = tensor<int32, [4]>([0, 0, 0, 0])];
            tensor<int32, [2]> input3_14_dilations_0 = const()[name = tensor<string, []>("input3_14_dilations_0"), val = tensor<int32, [2]>([1, 1])];
            tensor<int32, []> input3_14_groups_0 = const()[name = tensor<string, []>("input3_14_groups_0"), val = tensor<int32, []>(1)];
            tensor<fp16, [128, 64, 1, 1]> model_generator_tunnel2_2_6_conv_expand_weight_to_fp16 = const()[name = tensor<string, []>("model_generator_tunnel2_2_6_conv_expand_weight_to_fp16"), val = tensor<fp16, [128, 64, 1, 1]>(BLOBFILE(path = tensor<string, []>("@model_path/weights/weight.bin"), offset = tensor<uint64, []>(60703232)))];
            tensor<fp16, [1, 128, ?, ?]> input3_14_cast_fp16 = conv(dilations = input3_14_dilations_0, groups = input3_14_groups_0, pad = input3_14_pad_0, pad_type = input3_14_pad_type_0, strides = input3_14_strides_0, weight = model_generator_tunnel2_2_6_conv_expand_weight_to_fp16, x = input2_14_cast_fp16)[name = tensor<string, []>("input3_14_cast_fp16")];
            tensor<int32, [2]> input0_29_axes_0 = const()[name = tensor<string, []>("input0_29_axes_0"), val = tensor<int32, [2]>([-2, -1])];
            tensor<bool, []> input0_29_keep_dims_0 = const()[name = tensor<string, []>("input0_29_keep_dims_0"), val = tensor<bool, []>(true)];
            tensor<fp16, [1, 128, 1, 1]> input0_29_cast_fp16 = reduce_mean(axes = input0_29_axes_0, keep_dims = input0_29_keep_dims_0, x = input3_14_cast_fp16)[name = tensor<string, []>("input0_29_cast_fp16")];
            tensor<string, []> input_41_pad_type_0 = const()[name = tensor<string, []>("input_41_pad_type_0"), val = tensor<string, []>("valid")];
            tensor<int32, [2]> input_41_strides_0 = const()[name = tensor<string, []>("input_41_strides_0"), val = tensor<int32, [2]>([1, 1])];
            tensor<int32, [4]> input_41_pad_0 = const()[name = tensor<string, []>("input_41_pad_0"), val = tensor<int32, [4]>([0, 0, 0, 0])];
            tensor<int32, [2]> input_41_dilations_0 = const()[name = tensor<string, []>("input_41_dilations_0"), val = tensor<int32, [2]>([1, 1])];
            tensor<int32, []> input_41_groups_0 = const()[name = tensor<string, []>("input_41_groups_0"), val = tensor<int32, []>(1)];
            tensor<fp16, [8, 128, 1, 1]> model_generator_tunnel2_2_6_selayer_conv1_weight_to_fp16 = const()[name = tensor<string, []>("model_generator_tunnel2_2_6_selayer_conv1_weight_to_fp16"), val = tensor<fp16, [8, 128, 1, 1]>(BLOBFILE(path = tensor<string, []>("@model_path/weights/weight.bin"), offset = tensor<uint64, []>(60719680)))];
            tensor<fp16, [8]> model_generator_tunnel2_2_6_selayer_conv1_bias_to_fp16 = const()[name = tensor<string, []>("model_generator_tunnel2_2_6_selayer_conv1_bias_to_fp16"), val = tensor<fp16, [8]>([-0x1.29cp-4, 0x1.96cp-5, 0x1.f9p-7, 0x1.2ap-4, -0x1.69p-5, -0x1.5dcp-6, 0x1.75cp-4, 0x1.0c8p-3])];
            tensor<fp16, [1, 8, 1, 1]> input_41_cast_fp16 = conv(bias = model_generator_tunnel2_2_6_selayer_conv1_bias_to_fp16, dilations = input_41_dilations_0, groups = input_41_groups_0, pad = input_41_pad_0, pad_type = input_41_pad_type_0, strides = input_41_strides_0, weight = model_generator_tunnel2_2_6_selayer_conv1_weight_to_fp16, x = input0_29_cast_fp16)[name = tensor<string, []>("input_41_cast_fp16")];
            tensor<fp16, [1, 8, 1, 1]> var_2730_cast_fp16 = relu(x = input_41_cast_fp16)[name = tensor<string, []>("op_2730_cast_fp16")];
            tensor<string, []> input_43_pad_type_0 = const()[name = tensor<string, []>("input_43_pad_type_0"), val = tensor<string, []>("valid")];
            tensor<int32, [2]> input_43_strides_0 = const()[name = tensor<string, []>("input_43_strides_0"), val = tensor<int32, [2]>([1, 1])];
            tensor<int32, [4]> input_43_pad_0 = const()[name = tensor<string, []>("input_43_pad_0"), val = tensor<int32, [4]>([0, 0, 0, 0])];
            tensor<int32, [2]> input_43_dilations_0 = const()[name = tensor<string, []>("input_43_dilations_0"), val = tensor<int32, [2]>([1, 1])];
            tensor<int32, []> input_43_groups_0 = const()[name = tensor<string, []>("input_43_groups_0"), val = tensor<int32, []>(1)];
            tensor<fp16, [128, 8, 1, 1]> model_generator_tunnel2_2_6_selayer_conv2_weight_to_fp16 = const()[name = tensor<string, []>("model_generator_tunnel2_2_6_selayer_conv2_weight_to_fp16"), val = tensor<fp16, [128, 8, 1, 1]>(BLOBFILE(path = tensor<string, []>("@model_path/weights/weight.bin"), offset = tensor<uint64, []>(60721792)))];
            tensor<fp16, [128]> model_generator_tunnel2_2_6_selayer_conv2_bias_to_fp16 = const()[name = tensor<string, []>("model_generator_tunnel2_2_6_selayer_conv2_bias_to_fp16"), val = tensor<fp16, [128]>(BLOBFILE(path = tensor<string, []>("@model_path/weights/weight.bin"), offset = tensor<uint64, []>(60723904)))];
            tensor<fp16, [1, 128, 1, 1]> input_43_cast_fp16 = conv(bias = model_generator_tunnel2_2_6_selayer_conv2_bias_to_fp16, dilations = input_43_dilations_0, groups = input_43_groups_0, pad = input_43_pad_0, pad_type = input_43_pad_type_0, strides = input_43_strides_0, weight = model_generator_tunnel2_2_6_selayer_conv2_weight_to_fp16, x = var_2730_cast_fp16)[name = tensor<string, []>("input_43_cast_fp16")];
            tensor<fp16, [1, 128, 1, 1]> var_2738_cast_fp16 = sigmoid(x = input_43_cast_fp16)[name = tensor<string, []>("op_2738_cast_fp16")];
            tensor<fp16, [1, 128, ?, ?]> bottleneck_14_cast_fp16 = mul(x = input3_14_cast_fp16, y = var_2738_cast_fp16)[name = tensor<string, []>("bottleneck_14_cast_fp16")];
            tensor<fp16, [1, 128, ?, ?]> input4_14_cast_fp16 = add(x = input4_12_cast_fp16, y = bottleneck_14_cast_fp16)[name = tensor<string, []>("input4_14_cast_fp16")];
            tensor<string, []> input_365_pad_type_0 = const()[name = tensor<string, []>("input_365_pad_type_0"), val = tensor<string, []>("valid")];
            tensor<int32, [2]> input_365_strides_0 = const()[name = tensor<string, []>("input_365_strides_0"), val = tensor<int32, [2]>([1, 1])];
            tensor<int32, [4]> input_365_pad_0 = const()[name = tensor<string, []>("input_365_pad_0"), val = tensor<int32, [4]>([0, 0, 0, 0])];
            tensor<int32, [2]> input_365_dilations_0 = const()[name = tensor<string, []>("input_365_dilations_0"), val = tensor<int32, [2]>([1, 1])];
            tensor<int32, []> input_365_groups_0 = const()[name = tensor<string, []>("input_365_groups_0"), val = tensor<int32, []>(1)];
            tensor<fp16, [64, 128, 1, 1]> model_generator_tunnel2_2_7_conv_reduce_weight_to_fp16 = const()[name = tensor<string, []>("model_generator_tunnel2_2_7_conv_reduce_weight_to_fp16"), val = tensor<fp16, [64, 128, 1, 1]>(BLOBFILE(path = tensor<string, []>("@model_path/weights/weight.bin"), offset = tensor<uint64, []>(60724224)))];
            tensor<fp16, [1, 64, ?, ?]> input_365_cast_fp16 = conv(dilations = input_365_dilations_0, groups = input_365_groups_0, pad = input_365_pad_0, pad_type = input_365_pad_type_0, strides = input_365_strides_0, weight = model_generator_tunnel2_2_7_conv_reduce_weight_to_fp16, x = input4_14_cast_fp16)[name = tensor<string, []>("input_365_cast_fp16")];
            tensor<fp16, [1, 64, ?, ?]> input0_2_cast_fp16 = leaky_relu(alpha = var_22_to_fp16, x = input_365_cast_fp16)[name = tensor<string, []>("input0_2_cast_fp16")];
            tensor<string, []> input1_1_pad_type_0 = const()[name = tensor<string, []>("input1_1_pad_type_0"), val = tensor<string, []>("custom")];
            tensor<int32, [4]> input1_1_pad_0 = const()[name = tensor<string, []>("input1_1_pad_0"), val = tensor<int32, [4]>([1, 1, 1, 1])];
            tensor<int32, []> input1_1_groups_0 = const()[name = tensor<string, []>("input1_1_groups_0"), val = tensor<int32, []>(32)];
            tensor<int32, [2]> input1_1_strides_0 = const()[name = tensor<string, []>("input1_1_strides_0"), val = tensor<int32, [2]>([1, 1])];
            tensor<int32, [2]> input1_1_dilations_0 = const()[name = tensor<string, []>("input1_1_dilations_0"), val = tensor<int32, [2]>([1, 1])];
            tensor<fp16, [64, 2, 3, 3]> model_generator_tunnel2_2_7_conv_conv_weight_to_fp16 = const()[name = tensor<string, []>("model_generator_tunnel2_2_7_conv_conv_weight_to_fp16"), val = tensor<fp16, [64, 2, 3, 3]>(BLOBFILE(path = tensor<string, []>("@model_path/weights/weight.bin"), offset = tensor<uint64, []>(60740672)))];
            tensor<fp16, [1, 64, ?, ?]> input1_1_cast_fp16 = conv(dilations = input1_1_dilations_0, groups = input1_1_groups_0, pad = input1_1_pad_0, pad_type = input1_1_pad_type_0, strides = input1_1_strides_0, weight = model_generator_tunnel2_2_7_conv_conv_weight_to_fp16, x = input0_2_cast_fp16)[name = tensor<string, []>("input1_1_cast_fp16")];
            tensor<fp16, [1, 64, ?, ?]> input2_1_cast_fp16 = leaky_relu(alpha = var_22_to_fp16, x = input1_1_cast_fp16)[name = tensor<string, []>("input2_1_cast_fp16")];
            tensor<string, []> input3_1_pad_type_0 = const()[name = tensor<string, []>("input3_1_pad_type_0"), val = tensor<string, []>("valid")];
            tensor<int32, [2]> input3_1_strides_0 = const()[name = tensor<string, []>("input3_1_strides_0"), val = tensor<int32, [2]>([1, 1])];
            tensor<int32, [4]> input3_1_pad_0 = const()[name = tensor<string, []>("input3_1_pad_0"), val = tensor<int32, [4]>([0, 0, 0, 0])];
            tensor<int32, [2]> input3_1_dilations_0 = const()[name = tensor<string, []>("input3_1_dilations_0"), val = tensor<int32, [2]>([1, 1])];
            tensor<int32, []> input3_1_groups_0 = const()[name = tensor<string, []>("input3_1_groups_0"), val = tensor<int32, []>(1)];
            tensor<fp16, [128, 64, 1, 1]> model_generator_tunnel2_2_7_conv_expand_weight_to_fp16 = const()[name = tensor<string, []>("model_generator_tunnel2_2_7_conv_expand_weight_to_fp16"), val = tensor<fp16, [128, 64, 1, 1]>(BLOBFILE(path = tensor<string, []>("@model_path/weights/weight.bin"), offset = tensor<uint64, []>(60743040)))];
            tensor<fp16, [1, 128, ?, ?]> input3_1_cast_fp16 = conv(dilations = input3_1_dilations_0, groups = input3_1_groups_0, pad = input3_1_pad_0, pad_type = input3_1_pad_type_0, strides = input3_1_strides_0, weight = model_generator_tunnel2_2_7_conv_expand_weight_to_fp16, x = input2_1_cast_fp16)[name = tensor<string, []>("input3_1_cast_fp16")];
            tensor<int32, [2]> input0_80_axes_0 = const()[name = tensor<string, []>("input0_80_axes_0"), val = tensor<int32, [2]>([-2, -1])];
            tensor<bool, []> input0_80_keep_dims_0 = const()[name = tensor<string, []>("input0_80_keep_dims_0"), val = tensor<bool, []>(true)];
            tensor<fp16, [1, 128, 1, 1]> input0_80_cast_fp16 = reduce_mean(axes = input0_80_axes_0, keep_dims = input0_80_keep_dims_0, x = input3_1_cast_fp16)[name = tensor<string, []>("input0_80_cast_fp16")];
            tensor<string, []> input_367_pad_type_0 = const()[name = tensor<string, []>("input_367_pad_type_0"), val = tensor<string, []>("valid")];
            tensor<int32, [2]> input_367_strides_0 = const()[name = tensor<string, []>("input_367_strides_0"), val = tensor<int32, [2]>([1, 1])];
            tensor<int32, [4]> input_367_pad_0 = const()[name = tensor<string, []>("input_367_pad_0"), val = tensor<int32, [4]>([0, 0, 0, 0])];
            tensor<int32, [2]> input_367_dilations_0 = const()[name = tensor<string, []>("input_367_dilations_0"), val = tensor<int32, [2]>([1, 1])];
            tensor<int32, []> input_367_groups_0 = const()[name = tensor<string, []>("input_367_groups_0"), val = tensor<int32, []>(1)];
            tensor<fp16, [8, 128, 1, 1]> model_generator_tunnel2_2_7_selayer_conv1_weight_to_fp16 = const()[name = tensor<string, []>("model_generator_tunnel2_2_7_selayer_conv1_weight_to_fp16"), val = tensor<fp16, [8, 128, 1, 1]>(BLOBFILE(path = tensor<string, []>("@model_path/weights/weight.bin"), offset = tensor<uint64, []>(60759488)))];
            tensor<fp16, [8]> model_generator_tunnel2_2_7_selayer_conv1_bias_to_fp16 = const()[name = tensor<string, []>("model_generator_tunnel2_2_7_selayer_conv1_bias_to_fp16"), val = tensor<fp16, [8]>([0x1.a7cp-5, -0x1.f1p-6, 0x1.f6p-6, 0x1.becp-4, -0x1.c44p-6, 0x1.61cp-3, -0x1.b84p-5, -0x1.d48p-5])];
            tensor<fp16, [1, 8, 1, 1]> input_367_cast_fp16 = conv(bias = model_generator_tunnel2_2_7_selayer_conv1_bias_to_fp16, dilations = input_367_dilations_0, groups = input_367_groups_0, pad = input_367_pad_0, pad_type = input_367_pad_type_0, strides = input_367_strides_0, weight = model_generator_tunnel2_2_7_selayer_conv1_weight_to_fp16, x = input0_80_cast_fp16)[name = tensor<string, []>("input_367_cast_fp16")];
            tensor<fp16, [1, 8, 1, 1]> var_2776_cast_fp16 = relu(x = input_367_cast_fp16)[name = tensor<string, []>("op_2776_cast_fp16")];
            tensor<string, []> input_373_pad_type_0 = const()[name = tensor<string, []>("input_373_pad_type_0"), val = tensor<string, []>("valid")];
            tensor<int32, [2]> input_373_strides_0 = const()[name = tensor<string, []>("input_373_strides_0"), val = tensor<int32, [2]>([1, 1])];
            tensor<int32, [4]> input_373_pad_0 = const()[name = tensor<string, []>("input_373_pad_0"), val = tensor<int32, [4]>([0, 0, 0, 0])];
            tensor<int32, [2]> input_373_dilations_0 = const()[name = tensor<string, []>("input_373_dilations_0"), val = tensor<int32, [2]>([1, 1])];
            tensor<int32, []> input_373_groups_0 = const()[name = tensor<string, []>("input_373_groups_0"), val = tensor<int32, []>(1)];
            tensor<fp16, [128, 8, 1, 1]> model_generator_tunnel2_2_7_selayer_conv2_weight_to_fp16 = const()[name = tensor<string, []>("model_generator_tunnel2_2_7_selayer_conv2_weight_to_fp16"), val = tensor<fp16, [128, 8, 1, 1]>(BLOBFILE(path = tensor<string, []>("@model_path/weights/weight.bin"), offset = tensor<uint64, []>(60761600)))];
            tensor<fp16, [128]> model_generator_tunnel2_2_7_selayer_conv2_bias_to_fp16 = const()[name = tensor<string, []>("model_generator_tunnel2_2_7_selayer_conv2_bias_to_fp16"), val = tensor<fp16, [128]>(BLOBFILE(path = tensor<string, []>("@model_path/weights/weight.bin"), offset = tensor<uint64, []>(60763712)))];
            tensor<fp16, [1, 128, 1, 1]> input_373_cast_fp16 = conv(bias = model_generator_tunnel2_2_7_selayer_conv2_bias_to_fp16, dilations = input_373_dilations_0, groups = input_373_groups_0, pad = input_373_pad_0, pad_type = input_373_pad_type_0, strides = input_373_strides_0, weight = model_generator_tunnel2_2_7_selayer_conv2_weight_to_fp16, x = var_2776_cast_fp16)[name = tensor<string, []>("input_373_cast_fp16")];
            tensor<fp16, [1, 128, 1, 1]> var_2784_cast_fp16 = sigmoid(x = input_373_cast_fp16)[name = tensor<string, []>("op_2784_cast_fp16")];
            tensor<fp16, [1, 128, ?, ?]> bottleneck_1_cast_fp16 = mul(x = input3_1_cast_fp16, y = var_2784_cast_fp16)[name = tensor<string, []>("bottleneck_1_cast_fp16")];
            tensor<fp16, [1, 128, ?, ?]> input4_1_cast_fp16 = add(x = input4_14_cast_fp16, y = bottleneck_1_cast_fp16)[name = tensor<string, []>("input4_1_cast_fp16")];
            tensor<string, []> input_363_pad_type_0 = const()[name = tensor<string, []>("input_363_pad_type_0"), val = tensor<string, []>("custom")];
            tensor<int32, [4]> input_363_pad_0 = const()[name = tensor<string, []>("input_363_pad_0"), val = tensor<int32, [4]>([1, 1, 1, 1])];
            tensor<int32, [2]> input_363_strides_0 = const()[name = tensor<string, []>("input_363_strides_0"), val = tensor<int32, [2]>([1, 1])];
            tensor<int32, [2]> input_363_dilations_0 = const()[name = tensor<string, []>("input_363_dilations_0"), val = tensor<int32, [2]>([1, 1])];
            tensor<int32, []> input_363_groups_0 = const()[name = tensor<string, []>("input_363_groups_0"), val = tensor<int32, []>(1)];
            tensor<fp16, [256, 128, 3, 3]> model_generator_tunnel2_3_weight_to_fp16 = const()[name = tensor<string, []>("model_generator_tunnel2_3_weight_to_fp16"), val = tensor<fp16, [256, 128, 3, 3]>(BLOBFILE(path = tensor<string, []>("@model_path/weights/weight.bin"), offset = tensor<uint64, []>(60764032)))];
            tensor<fp16, [256]> model_generator_tunnel2_3_bias_to_fp16 = const()[name = tensor<string, []>("model_generator_tunnel2_3_bias_to_fp16"), val = tensor<fp16, [256]>(BLOBFILE(path = tensor<string, []>("@model_path/weights/weight.bin"), offset = tensor<uint64, []>(61353920)))];
            tensor<fp16, [1, 256, ?, ?]> input_363_cast_fp16 = conv(bias = model_generator_tunnel2_3_bias_to_fp16, dilations = input_363_dilations_0, groups = input_363_groups_0, pad = input_363_pad_0, pad_type = input_363_pad_type_0, strides = input_363_strides_0, weight = model_generator_tunnel2_3_weight_to_fp16, x = input4_1_cast_fp16)[name = tensor<string, []>("input_363_cast_fp16")];
            tensor<fp16, [1, 64, ?, ?]> var_2794_cast_fp16 = pixel_shuffle(upscale_factor = var_25, x = input_363_cast_fp16)[name = tensor<string, []>("op_2794_cast_fp16")];
            tensor<fp16, [1, 64, ?, ?]> x_1_cast_fp16 = leaky_relu(alpha = var_22_to_fp16, x = var_2794_cast_fp16)[name = tensor<string, []>("x_1_cast_fp16")];
            tensor<bool, []> input4_3_interleave_0 = const()[name = tensor<string, []>("input4_3_interleave_0"), val = tensor<bool, []>(false)];
            tensor<fp16, [1, 96, ?, ?]> input4_3_cast_fp16 = concat(axis = var_21, interleave = input4_3_interleave_0, values = (x_1_cast_fp16, input_145_cast_fp16))[name = tensor<string, []>("input4_3_cast_fp16")];
            tensor<string, []> input0_1_pad_type_0 = const()[name = tensor<string, []>("input0_1_pad_type_0"), val = tensor<string, []>("custom")];
            tensor<int32, [4]> input0_1_pad_0 = const()[name = tensor<string, []>("input0_1_pad_0"), val = tensor<int32, [4]>([1, 1, 1, 1])];
            tensor<int32, [2]> input0_1_strides_0 = const()[name = tensor<string, []>("input0_1_strides_0"), val = tensor<int32, [2]>([1, 1])];
            tensor<int32, [2]> input0_1_dilations_0 = const()[name = tensor<string, []>("input0_1_dilations_0"), val = tensor<int32, [2]>([1, 1])];
            tensor<int32, []> input0_1_groups_0 = const()[name = tensor<string, []>("input0_1_groups_0"), val = tensor<int32, []>(1)];
            tensor<fp16, [32, 96, 3, 3]> model_generator_exit_0_weight_to_fp16 = const()[name = tensor<string, []>("model_generator_exit_0_weight_to_fp16"), val = tensor<fp16, [32, 96, 3, 3]>(BLOBFILE(path = tensor<string, []>("@model_path/weights/weight.bin"), offset = tensor<uint64, []>(61354496)))];
            tensor<fp16, [32]> model_generator_exit_0_bias_to_fp16 = const()[name = tensor<string, []>("model_generator_exit_0_bias_to_fp16"), val = tensor<fp16, [32]>(BLOBFILE(path = tensor<string, []>("@model_path/weights/weight.bin"), offset = tensor<uint64, []>(61409856)))];
            tensor<fp16, [1, 32, ?, ?]> input0_1_cast_fp16 = conv(bias = model_generator_exit_0_bias_to_fp16, dilations = input0_1_dilations_0, groups = input0_1_groups_0, pad = input0_1_pad_0, pad_type = input0_1_pad_type_0, strides = input0_1_strides_0, weight = model_generator_exit_0_weight_to_fp16, x = input4_3_cast_fp16)[name = tensor<string, []>("input0_1_cast_fp16")];
            tensor<fp16, [1, 32, ?, ?]> input_377_cast_fp16 = leaky_relu(alpha = var_22_to_fp16, x = input0_1_cast_fp16)[name = tensor<string, []>("input_377_cast_fp16")];
            tensor<string, []> var_2814_pad_type_0 = const()[name = tensor<string, []>("op_2814_pad_type_0"), val = tensor<string, []>("valid")];
            tensor<int32, [2]> var_2814_strides_0 = const()[name = tensor<string, []>("op_2814_strides_0"), val = tensor<int32, [2]>([1, 1])];
            tensor<int32, [4]> var_2814_pad_0 = const()[name = tensor<string, []>("op_2814_pad_0"), val = tensor<int32, [4]>([0, 0, 0, 0])];
            tensor<int32, [2]> var_2814_dilations_0 = const()[name = tensor<string, []>("op_2814_dilations_0"), val = tensor<int32, [2]>([1, 1])];
            tensor<int32, []> var_2814_groups_0 = const()[name = tensor<string, []>("op_2814_groups_0"), val = tensor<int32, []>(1)];
            tensor<fp16, [3, 32, 1, 1]> model_generator_exit_2_weight_to_fp16 = const()[name = tensor<string, []>("model_generator_exit_2_weight_to_fp16"), val = tensor<fp16, [3, 32, 1, 1]>(BLOBFILE(path = tensor<string, []>("@model_path/weights/weight.bin"), offset = tensor<uint64, []>(61409984)))];
            tensor<fp16, [3]> model_generator_exit_2_bias_to_fp16 = const()[name = tensor<string, []>("model_generator_exit_2_bias_to_fp16"), val = tensor<fp16, [3]>([-0x1.cp-4, 0x1.428p-4, 0x1.208p-5])];
            tensor<fp16, [1, 3, ?, ?]> var_2814_cast_fp16 = conv(bias = model_generator_exit_2_bias_to_fp16, dilations = var_2814_dilations_0, groups = var_2814_groups_0, pad = var_2814_pad_0, pad_type = var_2814_pad_type_0, strides = var_2814_strides_0, weight = model_generator_exit_2_weight_to_fp16, x = input_377_cast_fp16)[name = tensor<string, []>("op_2814_cast_fp16")];
            tensor<fp16, [1, 3, ?, ?]> fake_color_1_cast_fp16 = tanh(x = var_2814_cast_fp16)[name = tensor<string, []>("fake_color_1_cast_fp16")];
            tensor<fp16, []> var_2816_to_fp16 = const()[name = tensor<string, []>("op_2816_to_fp16"), val = tensor<fp16, []>(0x1p-1)];
            tensor<fp16, [1, 3, ?, ?]> var_2817_cast_fp16 = mul(x = fake_color_1_cast_fp16, y = var_2816_to_fp16)[name = tensor<string, []>("op_2817_cast_fp16")];
            tensor<fp16, []> var_2818_to_fp16 = const()[name = tensor<string, []>("op_2818_to_fp16"), val = tensor<fp16, []>(0x1p-1)];
            tensor<fp16, [1, 3, ?, ?]> var_2819_cast_fp16 = add(x = var_2817_cast_fp16, y = var_2818_to_fp16)[name = tensor<string, []>("op_2819_cast_fp16")];
            tensor<string, []> var_2819_cast_fp16_to_fp32_dtype_0 = const()[name = tensor<string, []>("op_2819_cast_fp16_to_fp32_dtype_0"), val = tensor<string, []>("fp32")];
            tensor<fp32, [1, 3, ?, ?]> rgb = cast(dtype = var_2819_cast_fp16_to_fp32_dtype_0, x = var_2819_cast_fp16)[name = tensor<string, []>("cast_0")];
        } -> (rgb);
}